best_full_connected.pth (torch_old, 828868 bytes, 4 tensors)

fc1.weight f4 [200, 1024]
0.008206689 -0.0013871957 -0.019784674 0.0035857856 -0.010543327 -0.044540714 -0.021849265 0.0071991235
-0.017261505 -0.034631547 0.0048232405 -0.023495974 -0.033046912 -0.022289068 -0.040726855 -0.020235628
-0.039726444 -0.013123737 -0.044608932 -0.0060401205 0.0021291738 -0.025502082 -0.015482067 -0.0060797026
-0.04149376 -0.003985095 -0.02161978 -0.03918984 -0.007915283 -0.01757173 0.0040436243 -0.013311746
-0.03207932 -0.013597793 -0.000807768 -0.018280538 0.0006825088 -0.031820998 -0.03259992 -0.046360984
-0.034405563 -0.028084897 -0.036713436 -0.0037494567 -0.040744156 -0.02255661 0.011881292 -0.021925801
0.002326319 0.0018899839 -0.010356674 -0.01612528 -0.027023733 0.0032353648 -0.025693407 -0.034633584
0.010940902 -0.003785771 -0.046407618 -0.01224067 -0.008503232 -0.04730024 -0.0022592715 -0.011373018
-0.04497283 -0.045113154 -0.02571897 -0.032572396 -0.020609584 0.010529772 -0.00918515 0.001431501
-0.020413425 -0.02787217 -0.008141396 0.0042373855 -0.016872203 -0.02587955 -0.013807841 -0.03974922
-0.0064927894 -0.0028232764 -0.030776396 -0.024285868 -0.02355745 0.008490082 -0.022140129 -0.048332218
-0.02352291 -0.048024986 -0.031124178 0.0066558854 -0.005954024 -0.004774483 -0.019148655 -0.017666275
-0.010588816 -0.00046283257 -0.0014167383 -0.043150537 -0.046274375 -0.0075876345 -0.012059835 0.00635062
-0.01832112 -0.034152877 0.0022889487 -0.031133074 -0.0073490837 -0.017207718 0.010348752 0.012433271
-0.027025178 -0.020403652 -0.0064034294 0.01152343 -0.025954185 -0.012137108 -0.0030634431 -0.023766495
-0.0437986 -0.00037131913 -0.033709805 0.0041776295 -0.021552857 0.009791574 -0.019590188 -0.034228757
-0.013927976 -0.03442228 -0.029048262 -0.0194947 -0.038709167 -0.038208812 -0.028682249 -0.031140648
-0.04390898 -0.0049485187 -0.004583274 -0.034048375 -0.0155261895 -0.0058772354 -0.004711423 -0.012609578
0.010435196 -0.0070629586 -0.02038632 -0.029163906 -0.029111983 -0.014771712 -0.03480079 -0.032733716
-0.021231795 -0.04046256 -0.0051079253 -0.013403354 -0.023083847 -0.044760913 0.009793136 -0.042985417
-0.007058593 -0.011041463 -0.021268968 -0.03824921 -0.025695184 -0.029533584 -0.02346499 -0.025726566
-0.035198398 -0.014167864 -0.03529814 -0.040573742 -0.010091509 -0.003039484 -0.021709904 0.010888571
-0.024793854 0.0073053413 -0.035567146 -0.045462843 -0.021734633 0.0041920757 -0.0341965 -0.038959473
-0.03414758 -0.0485982 -0.035252016 0.004183423 0.0076466836 -0.031547286 0.0033975255 -0.03202393
0.00058608147 -0.016327294 -0.003300375 0.0015334263 -0.0022478902 -0.044899832 -0.0042469325 -0.049248856
-0.014738909 -0.00590621 -0.04846429 0.008624773 0.009906674 0.016132189 -0.015194362 -0.0043927412
-0.033749294 0.019355064 -0.0073824297 -0.0450867 0.0073438818 -0.0019128807 -0.037467975 -0.041808043
-0.024948433 -0.029929452 -0.0021098668 -0.008062667 0.011901391 -0.019688854 -0.04605677 -0.010353848
-0.0382777 -0.007062395 0.011459101 -0.025198093 -0.021511285 -0.03344409 -0.032806575 -0.048856232
-0.039908838 -0.025918856 -0.02469477 0.040016137 -0.004744204 0.03411013 0.0077752806 -0.0472046
-0.04448811 0.004352593 0.002310769 -0.0061156587 -0.043300305 -0.044203285 -0.0030389063 -0.014687188
-0.026854895 -0.04334747 -0.008718904 -0.0053993273 -0.0097742705 0.0068271854 -0.022778898 0.010569262
00000000: 5975 063c 90d2 b5ba 7813 a2bc 80ff 6a3b
00000010: ebbd 2cbc 5370 36bd 3bfd b2bc a0e6 eb3b
00000020: 0068 8dbc cfd9 0dbd 460c 9e3b a17a c0bc
00000030: 335c 07bd 9097 b6bc 34d1 26bd 30c5 a5bc
00000040: 32b8 22bd f104 57bc dbb7 36bd 34ec c5bb
00000050: 9c89 0b3b bee9 d0bc 7fa8 7dbc 3e38 c7bb
00000060: 5cf5 29bd 6695 82bb f71b b1bc 8785 20bd
00000070: 1aaf 01bc 97f2 8fbc 6180 843b 8219 5abc
00000080: 9b65 03bd 47c9 5ebc 65c0 53ba 11c1 95bc
00000090: 64ea 323a bc56 02bd 7e87 05bd 04e5 3dbd
000000a0: d9ec 0cbd 4c12 e6bc d460 16bd 72b9 75bb
000000b0: 58e3 26bd a4c8 b8bc c0a9 423c bd9d b3bc
000000c0: 2875 183b 56b9 f73a 0aaf 29bc 2a19 84bc
000000d0: e060 ddbc 6a08 543b fb7a d2bc f2db 0dbd
000000e0: 7841 333c b31a 78bb ea15 3ebd 178d 48bc
000000f0: 2451 0bbc e5bd 41bd 4910 14bb e555 3abc
00000100: 6e35 38bd 92c8 38bd 97b0 d2bc a26a 05bd
00000110: 6ed5 a8bc 1185 2c3c 507d 16bc 34a1 bb3a
00000120: 0e3a a7bc 2d54 e4bc 7d63 05bc c4d9 8a3b
00000130: 9337 8abc 5a01 d4bc 483a 62bc 14d0 22bd
00000140: 77c1 d4bb b806 39bb c81e fcbc 28f3 c6bc
00000150: 8efb c0bc fc19 0b3c 375f b5bc 01f8 45bd
00000160: 1eb3 c0bc d9b5 44bd 22f8 febc 9d19 da3b
00000170: f919 c3bb 4473 9cbb a4dd 9cbc ddb8 90bc
00000180: b77c 2dbc 56a8 f2b9 d9b1 b9ba 9ebe 30bd
00000190: 338a 3dbd b1a1 f8bb 9d96 45bc dd18 d03b
000001a0: 2c16 96bc e3e3 0bbd 3002 163b ca0a ffbc
000001b0: 95d0 f0bb 33f7 8cbc d08d 293c ebb4 4b3c
000001c0: e863 ddbc 8f25 a7bc dcd3 d1bb c5cc 3c3c
000001d0: df9d d4bc b8da 46bc 0cc4 48bb f4b1 c2bc
000001e0: 2966 33bd 9cad c2b9 4b13 0abd 7fe4 883b
000001f0: 9e8f b0bc d76c 203c 9a7b a0bc 7433 0cbd
00000200: 2a32 64bc 60fe 0cbd 9ff6 edbc 59b3 9fbc
00000210: 818d 1ebd d880 1cbd 09f7 eabc ac1a ffbc
00000220: e7d9 33bd 2f27 a2bb 4a2f 96bb 4f76 0bbd
00000230: 8f61 7ebc d395 c0bb 4862 9abb 6798 4ebc
00000240: 62f8 2a3c 6470 e7bb 3601 a7bc 25e9 eebc
00000250: 417c eebc 0d05 72bc 468b 0ebd ca13 06bd
00000260: 4dee adbc 12bc 25bd 6260 a7bb be99 5bbc
00000270: 561a bdbc 3857 37bd 6473 203c 7a11 30bd
00000280: c54b e7bb 41e7 34bc 423c aebc 34ab 1cbd
00000290: b57e d2bc 6af0 f1bc a739 c0bc 85c0 d2bc
000002a0: 322c 10bd 5420 68bc c894 10bd a730 26bd
000002b0: db56 25bc 1432 47bb f8d8 b1bc fa65 323c
000002c0: 7b1c cbbc a561 ef3b dbae 11bd 3f37 3abd
000002d0: d40c b2bc ae5d 893b a111 0cbd f893 1fbd
000002e0: 55de 0bbd e80e 47bd 6b64 10bd 1815 893b
000002f0: 0891 fa3b ba37 01bd 05a9 5e3b 862b 03bd
00000300: 43a3 193a d1c0 85bc 1b4b 58bb 40fd c83a
00000310: 5751 13bb e3e8 37bd da29 8bbb 2bb9 49bd
00000320: 777b 71bc e188 c1bb 7e82 46bd eb4e 0d3c
00000330: 9a4f 223c a727 843c c6f1 78bc fcf0 8fbb
00000340: b33c 0abd 838e 9e3c 4fe8 f1bb d5ac 38bd
00000350: f2a4 f03b a0b9 faba 0578 19bd e93e 2bbd
00000360: a860 ccbc 9c2e f5bc b145 0abb 4719 04bc
00000370: 0dfe 423c 854a a1bc 06a6 3cbd 30a3 29bc
00000380: 14c9 1cbd aa6b e7bb f4be 3b3c 3b6c cebc
00000390: 6f38 b0bc acfc 08bd 3060 06bd 791d 48bd
000003a0: 7377 23bd c853 d4bc b04c cabc f6e7 233d
000003b0: 4575 9bbb 10b7 0b3d c8c7 fe3b 9c59 41bd
000003c0: 2a39 36bd 32a0 8e3b 4570 173b dd65 c8bb
000003d0: a95b 31bd 810e 35bd 6328 47bb 88a2 70bc
000003e0: ccfe dbbc 1e8d 31bd bcd9 0ebc d7ec b0bb
000003f0: 4324 20bc 95b6 df3b d09a babc b32a 2d3c

fc1.bias f4 [200]
-0.0055071823 0.009094957 0.018537998 -0.008529977 0.018797087 -0.032630984 -0.02229145 -0.040821858
-0.00739502 -0.010748773 0.028527955 0.015841138 -0.011567383 -0.04540271 0.036387853 -0.0442003
-0.030181233 -0.017907318 -0.013182633 0.01612806 0.003406766 0.014583024 0.00683774 -0.00884664
-0.04550997 -0.008749891 0.0026383486 -0.0069690677 -0.012193654 0.011608058 -0.032336526 -0.024470458
-0.011420696 -0.043726705 0.023938928 0.0009174345 0.005117722 -0.04813448 0.0064523024 -0.030243563
-0.0010437998 0.04826121 -0.035457045 0.0010330157 -0.050395705 -0.0039477744 -0.0075874906 -0.040005073
-0.036634207 -0.006840851 0.064061955 -0.013829078 -0.04015946 -0.02118709 -0.023445802 0.026752781
-0.028060723 -0.040393297 -0.027617205 -0.014621458 -0.0036150548 -0.048492156 0.0015366314 -0.027531361
-0.02414139 0.013253552 0.000284326 -0.011067091 -0.00836079 -0.0069957064 -0.019855049 0.0059934105
0.028069027 0.013326138 -0.023311079 -0.006248049 0.016665164 -0.048851877 -0.016823994 -0.0842503
-0.010916341 -0.013444341 -0.014792815 0.005440562 0.008805632 -0.02416787 0.05729555 -0.007918267
-0.018335644 0.009477922 0.0061683725 -0.0041298866 -0.027117398 -0.0516909 -0.0001392439 0.017998055
0.007338505 -0.018733824 -0.01813974 0.00016631707 -0.044147003 -0.02616696 -0.046719793 -0.0065473346
0.04294825 -0.010652383 0.00635256 -0.01203208 -0.021895146 -0.017604899 -0.03268615 0.019612303
-0.03352928 -0.03604049 -0.006536332 -0.0012823778 0.05440157 -0.05694129 -0.029017527 -0.039705936
-0.04425186 0.029740462 -0.031821616 -0.041382566 -0.0055896016 -0.01752258 0.016415898 0.0080562895
0.017266314 0.023586713 -0.01905078 0.028745165 -0.0021086659 -0.021536501 -0.0025700699 -0.018762875
-0.02000702 -0.02737939 -0.05917706 -0.034268796 0.030303849 0.008814768 -0.010672356 -0.04803596
-0.00049904536 0.01859306 0.0068792133 -0.036707986 -0.018670509 0.0031515772 -0.0071653477 -0.02969862
0.012827424 -0.008011568 -0.020249235 -0.033184163 0.007830909 -0.01397205 -0.017691394 -0.021199089
-0.0011951356 -0.011090778 0.010274835 0.008799749 0.0022572044 -0.027690563 -0.0028739113 -0.026562868
0.070012406 0.00078951585 -0.0017746488 -0.016564278 0.030203676 -0.013224555 -0.05133761 -0.044885352
0.020531276 0.009219812 0.021129787 -0.018990396 -0.041989367 0.011631564 -0.0009767881 0.004663453
0.012173586 -0.05697894 0.016328366 0.05727075 -0.007265688 0.0043740436 -0.046695728 -0.047642335
0.021723028 -0.00471334 -0.0013747555 0.0075626955 0.00539812 0.0063385493 -0.021369562 0.011443507
00000000: 9875 b4bb 0403 153c 00dd 973c 51c1 0bbc
00000010: 59fc 993c 11a8 05bd 8f9c b6bc d234 27bd
00000020: ed51 f2bb 9f1b 30bc 75b3 e93c 46c5 813c
00000030: 1f85 3dbc 31f8 39bd 6e0b 153d 600b 35bd
00000040: a23e f7bc 5eb2 92bc f8fb 57bc fe1e 843c
00000050: 0d44 5f3b a3ed 6e3c 1f0f e03b 7ff1 10bc
00000060: aa68 3abd b45b 0fbc 25e8 2c3b c75c e4bb
00000070: e4c7 47bc b92f 3e3c 4e73 04bd 4576 c8bc
00000080: df1d 3bbc c61a 33bd 921b c43c fd7f 703a
00000090: 90b2 a73b a928 45bd d66d d33b 59c1 f7bc
000000a0: 1cd0 88ba 8cad 453d 683b 11bd 4166 873a
000000b0: ba6b 4ebd 555c 81bb 7ca0 f8bb 5cdc 23bd
000000c0: c00d 16bd 3829 e0bb ea32 833d 5b93 62bc
000000d0: 3f7e 24bd 8c90 adbc 6911 c0bc a628 db3c
000000e0: 9adf e5bc 7173 25bd 7a3d e2bc d78e 6fbc
000000f0: 8eea 6cbb b69f 46bd cb68 c93a 7389 e1bc
00000100: 2ac4 c5bc 6d25 593c 9711 9539 be52 35bc
00000110: b2fb 08bc 3d3c e5bb 0ea7 a2bc 5f64 c43b
00000120: 04f1 e53c e055 5a3c e0f6 bebc 6fbc ccbb
00000130: 6285 883c e818 48bd 79d2 89bc 6c8b acbd
00000140: 74da 32bc a745 5cbc 905d 72bc be46 b23b
00000150: 7f45 103c b2fb c5bc bdae 6a3d 9ebb 01bc
00000160: a234 96bc 4949 1b3c 0f20 ca3b 0054 87bb
00000170: 4e25 debc d6b9 53bd 0002 12b9 a870 933c
00000180: d777 f03b ad77 99bc cb99 94bc 6665 2e39
00000190: 7dd3 34bd 185c d6bc 415d 3fbd 068b d6bb
000001a0: 81ea 2f3d 5587 2ebc 2329 d03b 3422 45bc
000001b0: 735d b3bc 2638 90bc eae1 05bd fba9 a03c
000001c0: 0056 09bd 319f 13bd ba2e d6bb 7515 a8ba
000001d0: 2ed4 5e3d 453b 69bd 2ab6 edbc b1a2 22bd
000001e0: 7041 35bd 45a2 f33c 6257 02bd c480 29bd
000001f0: fa28 b7bb 848b 8fbc a27a 863c 87fe 033c
00000200: 1672 8d3c ec38 c13c 6210 9cbc fb7a eb3c
00000210: 8b31 0abb 516d b0bc 9e6e 28bb 9ab4 99bc
00000220: c3e5 a3bc be4a e0bc a563 72bd 705d 0cbd
00000230: c73f f83c d16b 103c 1bdb 2ebc 5bc1 44bd
00000240: 5ed2 02ba 7950 983c 066b e13b 1d5b 16bd
00000250: e5f2 98bc b18a 4e3b 4bcb eabb 854a f3bc
00000260: 1e2a 523c f442 03bc b9e1 a5bc 1eec 07bd
00000270: 374d 003c 06eb 64bc 8bed 90bc b6a9 adbc
00000280: 19a6 9cba 18b6 35bc c857 283c d32c 103c
00000290: 9bed 133b 52d7 e2bc 3b58 3cbb 5f9a d9bc
000002a0: aa62 8f3d 83f7 4e3a 559b e8ba cfb1 87bc
000002b0: b36d f73c ceab 58bc 6347 52bd b4d9 37bd
000002c0: 3531 a83c b20e 173c 6018 ad3c bf91 9bbc
000002d0: 0bfd 2bbd 5192 3e3c 9207 80ba e1cf 983b
000002e0: b873 473c c062 69bd 11c3 853c bc94 6a3d
000002f0: 0215 eebb 2354 8f3b 0544 3fbd 9c24 43bd
00000300: 7ef4 b13c 5d72 9abb 2431 b4ba 7dd0 f73b
00000310: b6e2 b03b 9bb3 cf3b 380f afbc 8c7d 3b3c

fc2.weight f4 [10, 200]
-0.0004230092 -0.006352151 0.053871837 -0.028145812 0.03256751 -0.053456098 -0.024242096 -0.04453912
-0.06663187 -0.031613063 -0.013769129 0.071879946 -0.0009533314 -0.01294275 0.006627206 -0.07940594
-0.0096761845 0.01740112 0.0012691448 0.01061904 0.06861626 0.07847954 -0.10649447 0.024086308
-0.0103220595 0.05315902 0.024236338 0.051950462 0.011441857 -0.022601297 -0.009157893 -0.03974376
-0.07094809 -0.081758 -0.00058983 0.03805859 0.034918215 0.009736967 -0.0036250532 -0.041010957
0.028349575 -0.0154181365 -0.049649186 -0.054548007 -0.014560871 0.022480275 0.037350703 -0.110727146
-0.09533902 0.043899998 -0.054610766 -0.07878967 -0.052476984 -0.038266078 -0.01578656 -0.011957827
0.029707437 -0.07766501 -0.08674105 0.043932002 0.035120986 0.05267314 -0.061965264 0.007726187
0.01391833 0.010900988 0.011607598 0.038638905 0.011693152 -0.05415709 -0.026958952 0.027930109
0.035859585 -0.06586713 -0.04828064 0.06334232 -0.038239416 -0.047468193 -0.07709116 -0.05355113
-0.027696863 0.0051434557 -0.055188384 0.046176404 0.03248369 0.037912417 -0.08625004 0.04001279
0.06021584 -0.06346786 -0.03276174 -0.03157773 -0.015907014 0.01747233 -0.06421799 -0.06548327
0.017901277 0.022041798 0.046083413 0.07995938 -0.093282044 0.05154563 -0.0046228743 -0.05522031
-0.087392606 0.066068016 0.03736142 0.07052591 0.021935744 -0.04647776 0.03610994 -0.10496357
0.023026379 -0.03603413 -0.07415313 -0.043313913 -0.08513249 0.0011011712 -0.010301372 -0.005557401
-0.007034244 0.004754137 -0.03463495 0.0076432526 -0.0074240565 -0.08651875 -0.0554384 0.022233464
-0.023798876 -0.061936762 -0.03966164 -0.00011070606 0.022946263 -0.08920324 -0.024234273 0.0022937192
0.0064143836 -0.027795672 -0.05830183 -0.055697024 0.032626133 -0.06885257 0.08217612 -0.052768257
0.053532988 -0.008475207 0.08688543 0.0005030842 0.0032969485 0.0371722 -0.04813944 -0.010252488
-0.08065867 -0.05082647 -0.014938727 -0.052285485 0.0028613817 -0.048895936 -0.020397568 -0.06115512
0.003947004 -0.022652408 0.051010285 -0.012997199 0.00669393 -0.05082465 0.029342763 -0.043073613
-0.038237106 0.0423948 0.033959843 0.020469882 -0.069439925 0.05878581 0.037906107 0.021848327
-0.071445815 0.005462622 0.07102421 -0.087103434 -0.00028070362 0.079586454 -0.055273227 0.0059935874
-0.0022033895 -0.0030136772 0.07444399 -0.07972027 -0.03563737 0.04125479 -0.023606105 0.025517458
-0.04456115 -0.023579717 0.059342436 0.035587914 0.020029621 -0.030388644 -0.011719059 0.011811958
0.030456048 0.042294554 -0.08811429 0.04876322 -0.10648956 -0.0051430995 -0.0033949183 0.18056045
0.076051444 -0.037847426 -0.11321502 -0.032233264 0.010048754 0.009808081 -0.10029857 0.076023884
-0.004063171 0.07696694 -0.017772123 0.0563367 -0.022780316 -0.04023921 -0.10148409 0.081759825
0.043269746 -0.04761138 0.08764357 0.018117463 -0.010728179 0.08255615 -0.020264022 0.03257348
0.029812071 -0.008767104 0.07554679 0.010349207 0.029767599 -0.02742313 0.10812532 -0.016673414
-0.027838416 -0.07904683 0.014489627 -0.12072179 0.04719033 0.07981253 -0.0221204 0.07468187
0.088825405 0.008334308 -0.13424449 0.03690438 -0.0011672752 -0.012083694 -0.07444407 -0.02791683
00000000: 55c7 ddb9 b425 d0bb b7a8 5c3d 0c92 e6bc
00000010: 8265 053d c8f4 5abd 5c97 c6bc a76e 36bd
00000020: 4a76 88bd b37c 01bd ea97 61bc cb35 933d
00000030: fde8 79ba d40d 54bc 0929 d93b 959f a2bd
00000040: dc88 1ebc cb8c 8e3c 6f59 a63a 7bfb 2d3c
00000050: af86 8c3d e2b9 a03d c619 dabd a650 c53c
00000060: db1d 29bc 46bd 593d 498b c63c 02ca 543d
00000070: a076 3b3c 5b26 b9bc fd0a 16bc 5aca 22bd
00000080: 3b4d 91bd bd70 a7bd d29e 1aba 53e3 1b3d
00000090: 6706 0f3d cd87 1f3c 4d92 6dbb 1bfb 27bd
000000a0: 5e3d e83c 5a9c 7cbc f25c 4bbd bb6d 5fbd
000000b0: b890 6ebc 8e28 b83c 0dfd 183d eac4 e2bd
000000c0: 1b41 c3bd 7cd0 333d 8aaf 5fbd 7a5c a1bd
000000d0: 1bf2 56bd e4bc 1cbd d152 81bc c3ea 43bc
000000e0: 035d f33c d50e 9fbd 4ba5 b1bd 0bf2 333d
000000f0: 06db 0f3d cabf 573d 4acf 7dbd f42b fd3b
00000100: b509 643c 0f9a 323c cb2d 3e3c d443 1e3d
00000110: a294 3f3c d3d3 5dbd 05d9 dcbc afcd e43c
00000120: 80e1 123d 59e5 86bd ecc1 45bd 9eb9 813d
00000130: efa0 1cbd 026e 42bd f8e1 9dbd 6e58 5bbd
00000140: 88e4 e2bc 6f8a a83b 370d 62bd 7823 3d3d
00000150: 9e0d 053d 0d4a 1b3d dca3 b0bd 74e4 233d
00000160: e2a4 763d 70fb 81bd 2d31 06bd a657 01bd
00000170: 6d4f 82bc 2222 8f3c b984 83bd 181c 86bd
00000180: b3a5 923c 0091 b43c f6c1 3c3d bec1 a33d
00000190: a80a bfbd 8321 533d 7b7b 97bb b12e 62bd
000001a0: e5fa b2bd ab4e 873d 4a08 193d e36f 903d
000001b0: 97b2 b33c 775f 3ebd 04e8 133d 24f7 d6bd
000001c0: d1a1 bc3c 8698 13bd 99dd 97bd ee69 31bd
000001d0: f159 aebd 2d55 903a 16c7 28bc dc1a b6bb
000001e0: 847f e6bb 97c8 9b3b 61dd 0dbd 4074 fa3b
000001f0: 8045 f3bb be30 b1bd 6013 63bd f422 b63c
00000200: dcf5 c2bc 67b1 7dbd 3e74 22bd dd2a e8b8
00000210: cdf9 bb3c 30b0 b6bd f486 c6bc 3952 163b
00000220: c02f d23b c0b3 e3bc e6cd 6ebd 9022 64bd
00000230: fba2 053d 9402 8dbd f44b a83d 8723 58bd
00000240: 6845 5b3d 98db 0abc fdf0 b13d 69e1 033a
00000250: 9e11 583b e041 183d dd2d 45bd 0dfa 27bc
00000260: 5f30 a5bd 6b2f 50bd 90c1 74bc 4e29 56bd
00000270: 0586 3b3b 1b47 48bd cd18 a7bc cb7d 7abd
00000280: df55 813b 8b91 b9bc 29f0 503d 34f2 54bc
00000290: c158 db3b 822d 50bd 3c60 f03c f56d 30bd
000002a0: 839e 1cbd 2ba6 2d3d 7a19 0b3d 74b0 a73c
000002b0: 8536 8ebd 64c9 703d 6f43 1b3d 43fb b23c
000002c0: 2f52 92bd cbff b23b 2475 913d 4963 b2bd
000002d0: 672b 93b9 39fe a23d 2e66 62bd db65 c43b
000002e0: be66 10bb 1d81 45bb 1776 983d 6244 a3bd
000002f0: 7ef8 11bd c8fa 283d 9761 c1bc fd09 d13c
00000300: c185 36bd 402a c1bc 0e11 733d a2c4 113d
00000310: 2915 a43c 9bf1 f8bc 4c01 40bc f186 413c
00000320: f67e f93c 0e3d 2d3d 4475 b4bd f1bb 473d
00000330: 3317 dabd 7287 a8bb 477d 5ebb d7e4 383e
00000340: dcc0 9b3d e705 1bbd 47dd e7bd 0707 04bd
00000350: 87a3 243c 13b2 203c 5669 cdbd 69b2 9b3d
00000360: 5924 85bb d8a0 9d3d d896 91bc 50c1 663d
00000370: c99d babc dfd1 24bd e4d6 cfbd b271 a73d
00000380: 9e3b 313d 2704 43bd 797e b33d 136b 943c
00000390: 3ec5 2fbc 3313 a93d bc00 a6bc c56b 053d
000003a0: 7238 f43c e6a3 0fbc 47b8 9a3d b88f 293c
000003b0: 2edb f33c 79a6 e0bc cf70 dd3d af96 88bc
000003c0: 640d e4bc 4ee3 a1bd e765 6d3c fc3c f7bd
000003d0: a64a 413d c074 a33d d735 b5bc cff2 983d
000003e0: 18ea b53d 9f8c 083c 6377 09be 0c29 173d
000003f0: 42ff 98ba b0fa 45bc 2276 98bd d6b1 e4bc

fc2.bias f4 [10]
0.060182612 -0.003995979 -0.050078824 -0.105989106 0.0075749774 0.0061153774 0.06436648 -0.0006509677
-0.029358635 0.029061345
00000000: 0b82 763d b4f0 82bb 741f 4dbd d110 d9bd
00000010: 8437 f83b 8163 c83b 93d2 833d b4a5 2aba
00000020: 8581 f0bc 0f12 ee3c
