best.pth (torch_old, 828820 bytes, 4 tensors)

fc1.weight f4 [200, 1024]
0	0xbcbb57d9	-0.022869037
1	0xb984affa	-0.00025308115
2	0xbbe8fc5d	-0.007110162
3	0xbd06115f	-0.03273141
4	0xbd48c89b	-0.049019437
5	0xbc3b7d11	-0.011443392
6	0xbd0aa148	-0.033845216
7	0x3c160b81	0.009158016
8	0xbcbf9fb9	-0.023391591
9	0x3be093d5	0.0068535605
10	0x3c55e34c	0.01305468
11	0xbd22a318	-0.03970632
12	0x3c397a49	0.011320659
13	0x3c56e883	0.013116959
14	0xbc0fe28a	-0.008782038
15	0xbd0e39a3	-0.034722935
16	0xbb1ad1b6	-0.0023623533
17	0xbcdc49d4	-0.026890673
18	0xbd0f4fc3	-0.034988176
19	0xbcde6688	-0.0271485
20	0xbc9a6e25	-0.01885135
21	0xbc3605da	-0.011109794
22	0xbd31db2d	-0.043421913
23	0xbc045ee7	-0.008079267
24	0xbcaf9a9d	-0.02143603
25	0xbcefefc7	-0.02928914
26	0xbd233a6b	-0.039850634
27	0x3c12cdf1	0.008960233
28	0xbca8baff	-0.02059698
29	0x3cacd757	0.021098776
30	0x3cccadc7	0.024985207
31	0xbbeff713	-0.0073231547
32	0xbc16df76	-0.009208551
33	0xbd416794	-0.04721792
34	0xbc9eb460	-0.019373119
35	0xbd2f6100	-0.042817116
36	0xbccb45e0	-0.024813592
37	0x3c355a69	0.011068919
38	0xbcfb2efc	-0.030662052
39	0xbd364fb6	-0.044509612
40	0xbd41289f	-0.04715788
41	0xbcdf808b	-0.027282974
42	0xbc28c6cc	-0.010301303
43	0xbd069042	-0.03285242
44	0x3bc38067	0.0059662345
45	0xbc62f854	-0.013853151
46	0xbc132f21	-0.008983404
47	0xbd01dec9	-0.031706605
48	0xbcf918eb	-0.03040739
49	0xbd0e7a23	-0.034784447
50	0xbd3e75cd	-0.046499062
51	0xbcdcff55	-0.02697722
52	0x3c45fba3	0.012083921
53	0xbc08d981	-0.008352638
54	0xbd3bf937	-0.045891967
55	0xbcc47a93	-0.02398423
56	0xbc17b580	-0.009259582
57	0xbd1c05be	-0.038091414
58	0xbc92462e	-0.01785573
59	0xbce49b4d	-0.027906084
60	0xbc8a8f18	-0.016913936
61	0xbc6f715c	-0.014614429
62	0x3c15bba9	0.00913898
63	0x3acafaee	0.001548616
64	0xbd0e6960	-0.034768462
65	0x3b7f58a4	0.0038962746
66	0xbd32137e	-0.04347562
67	0xbc81df33	-0.0158535
68	0xbcc66f35	-0.02422295
69	0xbcfbd865	-0.030742833
70	0xbb01eb4b	-0.0019824083
71	0xbd110a6a	-0.035410322
72	0xbc0d395e	-0.008619634
73	0xbd10a79b	-0.03531609
74	0xbbebd3c3	-0.007196875
75	0xbcecf9a9	-0.028927641
76	0xbc43fb2c	-0.0119617395
77	0xbd384541	-0.04498792
78	0xbd0a7c5e	-0.033810012
79	0xbd303e36	-0.04302808
80	0xbd42f9b7	-0.047601428
81	0x3bbbd957	0.005732696
82	0xbd43d9c6	-0.047815107
83	0xbbc3e106	-0.0059777526
84	0xbbd0a100	-0.006366849
85	0xbd12f6f4	-0.035880044
86	0x3b8760d0	0.004131414
87	0xbd14347f	-0.036182877
88	0xbd2092d3	-0.039202522
89	0xbc8ea83e	-0.017414209
90	0xbd177cbf	-0.0369842
91	0xbd3723e4	-0.044711962
92	0xbd183b42	-0.037165888
93	0xbc8e5bee	-0.01737782
94	0xbcf6e94f	-0.030140547
95	0x3c9a8bd3	0.018865502
96	0xbcfda4c0	-0.030962348
97	0x3c52ebea	0.012873629
98	0x3c03198b	0.008001695
99	0xbd110a06	-0.03540995
100	0xbcd33f7a	-0.025787104
101	0xbcf169e1	-0.029469432
102	0x3b466087	0.0030269937
103	0xbd2905d5	-0.041265327
104	0xbc662d50	-0.014048889
105	0xbd1a9229	-0.037737045
106	0x3a8a24bf	0.0010539516
107	0x3c3d8494	0.011567254
108	0xbc420aba	-0.011843378
109	0x3b3970a8	0.0028295908
110	0xbb76a9a9	-0.0037637746
111	0x3be014d1	0.006838419
112	0x3b691e23	0.0035570941
113	0x3c2c3ced	0.010512573
114	0xbcb4f5ae	-0.022089805
115	0x3c54cc22	0.012988122
116	0xbc204e86	-0.009784346
117	0xbcbe5e3c	-0.023238294
118	0xbcbdd2c8	-0.023171797
119	0xbccdf53a	-0.025141347
120	0xbcf1cb90	-0.029516011
121	0x3c07a59e	0.008279232
122	0xbd01a32a	-0.031649746
123	0xba8f2b9c	-0.0010923031
124	0xbc33fdf1	-0.010985837
125	0xbd39dd04	-0.045376793
126	0xbbce34fb	-0.006292937
127	0xbc3e541d	-0.011616734
128	0xbc971d97	-0.018446727
129	0xbcd6d9c8	-0.026226893
130	0xbc3e5bfb	-0.01161861
131	0xbcf366c6	-0.029712092
132	0xbcd5ed84	-0.026114233
133	0xbadaa5ed	-0.001668153
134	0xbd1fca1f	-0.039011117
135	0xbd20d2c9	-0.03926352
136	0xbcee2708	-0.029071346
137	0xbd0eba72	-0.034845777
138	0xbccb7964	-0.024838157
139	0xbcc436ef	-0.023951976
140	0xbd1f55a9	-0.03890005
141	0xbd48e882	-0.04904986
142	0x3b687adc	0.003547362
143	0xbc126467	-0.008935071
144	0x3c470db9	0.012149268
145	0x3c427389	0.011868366
146	0xbbe2854c	-0.006912863
147	0xbd21ed28	-0.03953281
148	0x3b722cf4	0.0036953064
149	0xbc622af9	-0.013804191
150	0xbd3e9332	-0.046527095
151	0xbd3af050	-0.045639336
152	0xbc6939d4	-0.014234979
153	0x3c11add6	0.008891543
154	0xbcac688c	-0.021045946
155	0xbba52c38	-0.0050406717
156	0xbc6f7970	-0.014616355
157	0x3a6b845f	0.00089842634
158	0x3c2cdaa6	0.010550177
159	0x3afb688f	0.0019180941
160	0xbc8bd040	-0.017067075
161	0xbd31a2e8	-0.04336825
162	0xbc83e06f	-0.01609823
163	0x3c158f39	0.009128385
164	0xbd2c4998	-0.042062372
165	0xbcb008b1	-0.02148852
166	0xbb6d35e1	-0.0036195444
167	0xbd49c1f2	-0.049257226
168	0xbc7a8935	-0.015291502
169	0x3bdb8a86	0.006699863
170	0xbc1f8cd8	-0.00973817
171	0xbd2ef41b	-0.042713266
172	0xbcf153a3	-0.029458826
173	0xbcd4127f	-0.025887726
174	0xbbf1775a	-0.007368964
175	0xbd44055b	-0.04785667
176	0xbcd5a491	-0.026079448
177	0xbcac679e	-0.021045502
178	0xbbb0fa48	-0.0054009296
179	0xbb88c35e	-0.00417368
180	0xba265b4d	-0.00063460023
181	0xbcd84f55	-0.026405016
182	0x3c010e49	0.007876941
183	0xbd1d7f96	-0.038451754
184	0x3c3354ee	0.010945542
185	0xbce40658	-0.027835056
186	0xbd2a5b61	-0.041591052
187	0xbcb250d2	-0.021767054
188	0x3be1eec4	0.006894918
189	0x3b349922	0.0027557095
190	0xbc31fea7	-0.0108639365
191	0xbd1cf611	-0.038320605
192	0xbad9b8ad	-0.0016610824
193	0xbbf808f9	-0.007569429
194	0xbc4674a3	-0.012112769
195	0x3bd996f7	0.006640311
196	0xbce76efd	-0.028251166
197	0xbbf4a40f	-0.0074658464
198	0xbbd34213	-0.0064470856
199	0x3c32d929	0.010916033
200	0xbd146b37	-0.03623506
201	0xbc4387eb	-0.011934261
202	0xbcdc4e88	-0.026892915
203	0x3a81ffc0	0.0009918138
204	0xbb471ee0	-0.0030383393
205	0x3c211bba	0.009833271
206	0xbc87fb1b	-0.016599229
207	0x3bea53a8	0.007151086
208	0x3c1f6706	0.009729153
209	0xbcc3545b	-0.023843935
210	0x3c083750	0.008313969
211	0x3c24293d	0.010019598
212	0x3c334529	0.010941782
213	0xbcb90008	-0.022583023
214	0xbd276127	-0.040864136
215	0xbc24c629	-0.010057011
216	0x3c180fe0	0.009281129
217	0xbd128cda	-0.035778858
218	0xbd2bed15	-0.041974146
219	0x3b7e77de	0.003882877
220	0xbd31c361	-0.04339922
221	0x3bf41ac2	0.007449479
222	0xbce32cc7	-0.027731312
223	0xbd21cd6a	-0.03950254
224	0xbc104274	-0.008804906
225	0x3bed126b	0.0072348616
226	0xbd239bdc	-0.03994356
227	0xbb1aed54	-0.0023639994
228	0xbd25154a	-0.040303506
229	0xba41c3d2	-0.0007391545
230	0xbaab7901	-0.0013082327
231	0xbd0d8567	-0.03455105
232	0x3a04d81f	0.0005067605
233	0xbcf7c2d3	-0.030244267
234	0xbbb224be	-0.005436509
235	0xbcefb4fd	-0.029261107
236	0xbd14ce68	-0.036329657
237	0x3aea0f20	0.0017857291
238	0xbc3425f8	-0.010995381
239	0xbcb36c96	-0.021902364
240	0xbd414954	-0.04718907
241	0xbc1072b6	-0.008816412
242	0xbcb64ccd	-0.022253418
243	0xbb020f32	-0.0019845483
244	0x3a91e735	0.0011131527
245	0xbd07e8ce	-0.033181004
246	0x3c06cd17	0.008227608
247	0x3c488bb3	0.012240338
248	0xbc1d3847	-0.009595937
249	0xbbc068ac	-0.005871853
250	0xbc39c384	-0.011338118
251	0xbba9648f	-0.005169458
252	0xbcfced26	-0.0308748
253	0xbd26d99c	-0.040734872
254	0xbba1909f	-0.0049305703
255	0xbca84bf8	-0.020544037

fc1.bias f4 [200]
0	0xba47e986	-0.0007626045
1	0x3bec57dd	0.0072126226
2	0xbd272d3b	-0.04081462
3	0xbc70af96	-0.0146903
4	0x3c05add5	0.008159121
5	0xbc573450	-0.013135031
6	0xbd18ea9b	-0.037333112
7	0xbc99f41e	-0.018793162
8	0xbb808751	-0.003922381
9	0xbbe8268e	-0.007084674
10	0xbccad4be	-0.024759647
11	0xbc2ec418	-0.01066687
12	0x3c630c4d	0.013857913
13	0xbc2ad9a1	-0.010427863
14	0x3ce56445	0.028001914
15	0xbd241e5b	-0.04006801
16	0xbcb7753d	-0.02239477
17	0x3b387bf8	0.0028150063
18	0xbc61d80a	-0.013784418
19	0xbce90af8	-0.028447613
20	0xbcbc0d96	-0.022955697
21	0xbd2333fd	-0.0398445
22	0xbc92455d	-0.01785534
23	0xbcc032ed	-0.023461783
24	0xbd19b277	-0.037523713
25	0xbc181046	-0.009281224
26	0x39914cb5	0.00027713706
27	0xbca4520d	-0.020058656
28	0x3a45d452	0.0007546592
29	0x3cb4b4cf	0.022058873
30	0xbbd938fb	-0.006629107
31	0xbd29502e	-0.04133623
32	0xbba877e8	-0.005141247
33	0x3c487691	0.0122353
34	0xbce6c02e	-0.02816781
35	0xbd1f2fbd	-0.038863886
36	0x3c43b11b	0.011944081
37	0xbc56faff	-0.013121366
38	0x3ace6739	0.0015747315
39	0xb9a11bae	-0.00030728936
40	0x3c4f1ce8	0.012641169
41	0xbd3975b9	-0.045278285
42	0xbc5c1181	-0.013431908
43	0x3acd5d5a	0.001566808
44	0xbc82a103	-0.015945917
45	0x382db6de	4.1416723e-05
46	0xbc86e2d8	-0.01646559
47	0xbc91b814	-0.01778797
48	0x3c70cb20	0.014696866
49	0xba40ee9c	-0.00073597743
50	0xbca550d8	-0.02018015
51	0xbd2d664f	-0.042333897
52	0xbd1e5d88	-0.038663417
53	0x3d06045d	0.032719005
54	0xbc962662	-0.01832885
55	0xbcca42ef	-0.02469012
56	0x3cb31e4e	0.021865036
57	0x3c4e3c18	0.01258757
58	0xbcc813cc	-0.024423502
59	0xbce89ad8	-0.028394148
60	0xbc8d7563	-0.017267888
61	0xbcd8ebd1	-0.026479634
62	0xbcb65835	-0.022258857
63	0xbc451058	-0.012027822
64	0xbcc1eae8	-0.023671582
65	0xbd27b741	-0.04094625
66	0xbd49b87c	-0.049248204
67	0xbcf24c69	-0.02957745
68	0x3bfe5a38	0.0077622198
69	0x3aa653a0	0.0012689717
70	0xbd45ad4b	-0.04826097
71	0x3a7dff24	0.0009689203
72	0xbc9c66f9	-0.01909207
73	0x3c39dfee	0.011344893
74	0xbc7258f1	-0.014791713
75	0xbd05d7c9	-0.032676492
76	0xbd436c8b	-0.047710937
77	0x3c32f1e0	0.010921925
78	0x3c125848	0.008932181
79	0xbceb0cf5	-0.028692702
80	0xbbc618d7	-0.0060454416
81	0x3b2e8548	0.0026629735
82	0xbc86a82c	-0.016437612
83	0x3bea68d5	0.0071536102
84	0x3bcb404d	0.0062027336
85	0x3c8d39a2	0.017239396
86	0xbab2c8b3	-0.0013640135
87	0xbcc6f62d	-0.024287308
88	0x3b842cae	0.0040336465
89	0xbc259c41	-0.010108055
90	0x3cfb8272	0.03070185
91	0xbabc19ef	-0.001435099
92	0x3c5021ce	0.012703372
93	0xbd415fc4	-0.04721047
94	0x3cb9a752	0.022662792
95	0x3cf7e034	0.030258276
96	0x3d313a0f	0.04326826
97	0xbcd4c34f	-0.025972037
98	0xbd2a7e43	-0.04162432
99	0xbcc3a0db	-0.023880413
100	0xbc0b47fe	-0.008501051
101	0xbc02f458	-0.007992826
102	0xbbd89250	-0.0066092387
103	0xbc009d2a	-0.007849971
104	0xbbff2333	-0.0077861785
105	0xbd2a620f	-0.041597422
106	0x3c8552f9	0.016274916
107	0x3b0334d0	0.0020020492
108	0xbb8601b5	-0.004089559
109	0x3c87991d	0.016552502
110	0xbd0d5bee	-0.0345115
111	0x3c78b509	0.015179881
112	0xbd3f55be	-0.04671263
113	0xbd1e6109	-0.03866676
114	0xbd22889b	-0.03968106
115	0xbd14fa11	-0.036371294
116	0xb92cc253	-0.0001647559
117	0x3c54cdd0	0.012988523
118	0x3c11472a	0.0088670645
119	0x3c720be7	0.014773346
120	0x3c93e41e	0.01805311
121	0xbc542f4e	-0.012950731
122	0x3bfae6d1	0.00765691
123	0x3cea02c1	0.028565766
124	0xbb61d3e7	-0.003445858
125	0xbcf0dcf1	-0.029402228
126	0xbcd46a9b	-0.02592974
127	0x3c2a146b	0.010380845
128	0x3bb1b44c	0.0054231044
129	0xbcd1a7ed	-0.025592769
130	0x3c949540	0.018137574
131	0x3c1d929e	0.009617476
132	0x39e42e5b	0.00043522086
133	0x3b4b6d24	0.0031040395
134	0xbc83592a	-0.016033728
135	0xbc179765	-0.009252404
136	0xbcc14c56	-0.02359597
137	0xbcf241d4	-0.029572405
138	0xba8f6c7d	-0.0010942366
139	0xbcbc3a33	-0.02297697
140	0xbc977752	-0.018489514
141	0x3d294d00	0.0413332
142	0x3ce25538	0.027628526
143	0xbc09cf69	-0.008411267
144	0xbc925f3c	-0.017867677
145	0xbba12b58	-0.004918497
146	0xbd2e3c01	-0.042537693
147	0xbca46577	-0.020067913
148	0xbc67f627	-0.014157808
149	0xbc074445	-0.008256023
150	0xbc825ccf	-0.015913395
151	0xbc2fe133	-0.010734844
152	0xbd0e0546	-0.034672998
153	0xbd439fa6	-0.047759674
154	0x3c1b8add	0.009493557
155	0xbc3d0830	-0.011537597
156	0xbbcdf245	-0.0062849843
157	0xbc5c2e7b	-0.013438816
158	0xbc3e7d7e	-0.011626599
159	0xb96635ef	-0.00021954601
160	0xbce8fc4c	-0.028440617
161	0xbd17a376	-0.037021123
162	0xbc690341	-0.014221967
163	0x3c89eba9	0.016836004
164	0xbbde38f6	-0.0067816926
165	0xbcdb66d5	-0.026782433
166	0x3c1c7c7d	0.009551165
167	0xbc675f9b	-0.014121915
168	0xbd0e5dfa	-0.03475759
169	0xbc98c022	-0.018646304
170	0xba1653fb	-0.000573456
171	0xbcf32082	-0.029678587
172	0xbcbd5081	-0.023109676
173	0xbc00cd44	-0.007861439
174	0x3bea7ade	0.00715576
175	0x3c89a62a	0.016802866
176	0x39245105	0.00015670441
177	0xbcb23687	-0.021754516
178	0x3c271d1a	0.010199809
179	0xbc03ffc9	-0.008056589
180	0x3c418665	0.011811827
181	0x3bce05fd	0.006287335
182	0xbc6e5b85	-0.014548187
183	0xbcc56d36	-0.024099927
184	0x3cc3f57b	0.023920765
185	0xbd4188b6	-0.04724952
186	0xbc8b1bfd	-0.01698112
187	0x3c15d1e1	0.009144277
188	0xbc9a2088	-0.01881434
189	0x3c280d74	0.010257114
190	0xbcd756ad	-0.026286447
191	0xbc361c09	-0.011115083
192	0xbcf49da0	-0.029860318
193	0xbd2d7125	-0.04234423
194	0xbb9bb4f4	-0.004751796
195	0xbc10ee46	-0.008845871
196	0x3bde0fc1	0.0067767804
197	0xbd349e34	-0.044096187
198	0x3cdf8bc2	0.027288321
199	0x3ad99e4a	0.001660296

fc2.weight f4 [10, 200]
0	0xbae791d3	-0.001766736
1	0xbd940bdf	-0.07228827
2	0xbd1c2f47	-0.038131025
3	0xbca25dad	-0.019820059
4	0x3d8339fd	0.06407545
5	0x3cd0e7be	0.025501128
6	0xbcdde2a3	-0.027085608
7	0xbc8651a1	-0.016396346
8	0xbd850fdb	-0.06497165
9	0xbc406bdc	-0.011744466
10	0xbc082d0e	-0.008311523
11	0xbd0d9a9b	-0.03457127
12	0x3d3e6a53	0.046488117
13	0xbc2b4015	-0.01045229
14	0x3c90af24	0.017661639
15	0x3cb99278	0.02265285
16	0xbd1db738	-0.03850481
17	0xbd96823b	-0.07349058
18	0x3c7869c8	0.015161939
19	0xbd8638bd	-0.06553791
20	0x3d82eaef	0.06392466
21	0xbd1010cf	-0.03517228
22	0x3c9be583	0.019030338
23	0xbd4f2392	-0.050571032
24	0x3d156f2f	0.036482986
25	0x3d2e443d	0.042545546
26	0x3c8cf0fb	0.017204752
27	0xbb57b3a0	-0.0032913461
28	0x3bd91010	0.0066242293
29	0x3c561540	0.01306659
30	0x3cb7dc9e	0.022444066
31	0x3b299ee0	0.002588205
32	0x3a15dec8	0.0005717096
33	0x3c2ae074	0.01042949
34	0xbcd3ea34	-0.025868513
35	0xbd4aa196	-0.049470507
36	0x3bc1fbe8	0.005919922
37	0xbd2afd65	-0.041745562
38	0x3d266a49	0.040628705
39	0xbd285a24	-0.04110159
40	0x3da14599	0.07874603
41	0x3d02fe01	0.03198052
42	0x3c978495	0.018495837
43	0x3c8c4ccc	0.017126463
44	0xbd63745c	-0.05553089
45	0xbd8dfa4f	-0.06932508
46	0xbd8e4cac	-0.06948218
47	0x3ce458c0	0.02787435
48	0x3d415fa5	0.047210354
49	0xbccb5e81	-0.024825336
50	0x3d15175c	0.03639923
51	0xbd0f8563	-0.035039317
52	0x3d4473cd	0.047962
53	0xbccb923a	-0.02485
54	0xbd25203a	-0.040313937
55	0x3d0685a6	0.0328423
56	0xbd3e8d03	-0.046521198
57	0xbd86ec45	-0.065880336
58	0xbc458967	-0.012056685
59	0xbd1ef76b	-0.038810175
60	0xbda0a3a4	-0.07843712
61	0xbd443b35	-0.047908027
62	0x3cfc1f58	0.030776665
63	0x3d392e1e	0.045209996
64	0xbd6bd00e	-0.057571463
65	0xbd4e7611	-0.050405566
66	0xbce8c686	-0.028414976
67	0x3c213dcf	0.0098413965
68	0xbcf4eeee	-0.029899087
69	0x3b7dd940	0.0038734227
70	0x3d573f72	0.05255074
71	0xbd244377	-0.040103402
72	0x3d220ceb	0.0395631
73	0xbd28b09d	-0.041184057
74	0x3a9296ae	0.0011183822
75	0x3d9dd2c2	0.077062145
76	0x3cd09fca	0.025466818
77	0xbc3f240d	-0.01166631
78	0x3ca884ac	0.020571075
79	0x3da439f8	0.08018869
80	0xbd99d97c	-0.07512185
81	0x3d06c1c7	0.032899644
82	0x3d535854	0.05159791
83	0xbd689035	-0.05677815
84	0xbd525855	-0.05135377
85	0xbd99d6f5	-0.07511703
86	0x3d5cffb8	0.05395481
87	0x3db08ea8	0.086209595
88	0x3c0c191b	0.0085509075
89	0xbd9e3dd0	-0.077266335
90	0x3a0437d8	0.0005043722
91	0x3c7ff0bb	0.015621359
92	0x3c6bea07	0.014399058
93	0x3c2af1f7	0.0104336655
94	0x3d020724	0.03174509
95	0xbd919a56	-0.07109515
96	0x3c04ee49	0.008113452
97	0xbd0cfa3a	-0.034418322
98	0xbc75b53e	-0.014996825
99	0x3ca06af7	0.019582255
100	0x3c9f5558	0.019449875
101	0x3d011835	0.031517226
102	0x3d4e4971	0.050363008
103	0xbd5fa627	-0.054601815
104	0xbd1143e9	-0.035465155
105	0xbd85c3e1	-0.065315016
106	0xbccea22a	-0.02522381
107	0xbd0811ac	-0.03321998
108	0xbd502ab7	-0.050821986
109	0x3d41f6b1	0.047354404
110	0xbd08599f	-0.033288594
111	0x3b1c4e1b	0.0023850265
112	0xbc11e1d8	-0.008903943
113	0xbd87db86	-0.06633668
114	0xbd5f4a15	-0.05451401
115	0xbcbc0e58	-0.022956058
116	0xbc3730e1	-0.011181087
117	0xbd38aa1a	-0.045084096
118	0xbd497b93	-0.049190115
119	0x3d2205f0	0.039556444
120	0x3c0d2f7e	0.00861728
121	0xbda6f369	-0.081518956
122	0xbcbb565b	-0.022868326
123	0xbd97049a	-0.073739246
124	0x3d553fc6	0.052062772
125	0x3d14df45	0.03634574
126	0x3d1ff049	0.039047513
127	0xbd933c94	-0.07189289
128	0x3c383ff8	0.01124572
129	0xbc9149fe	-0.017735478
130	0xbcbc2ed4	-0.022971548
131	0x3d84990a	0.064745024
132	0x3acae509	0.0015479635
133	0xbcd8ac0c	-0.026449226
134	0xbd0f4042	-0.03497339
135	0x3d4a1970	0.049340665
136	0xbd5b14ac	-0.05348651
137	0xbc1cb974	-0.0095657
138	0x3c315323	0.010823044
139	0xbcc0b1c6	-0.023522269
140	0x3d1502bb	0.036379557
141	0x3b1924ac	0.0023367805
142	0x3cbeb695	0.023280421
143	0xbc93c339	-0.018037425
144	0xbca08f6f	-0.019599644
145	0x3d2a317c	0.0415511
146	0x3c923bb9	0.017850744
147	0x3d548bd6	0.05189117
148	0xba43e688	-0.00074730115
149	0xbd2aa8db	-0.04166494
150	0x3d72e178	0.059297055
151	0x3c0ac30b	0.008469353
152	0x3bf794d1	0.007555582
153	0xbd30da55	-0.043176968
154	0x3c143e73	0.009048092
155	0xbcd20a3e	-0.02563965
156	0x3d28ca98	0.041208833
157	0xbba45ae7	-0.005015719
158	0x3ce6f6f4	0.028193928
159	0xbd79decc	-0.06100349
160	0x3cc89f48	0.024490014
161	0x3d16e61d	0.036840547
162	0xbdae09e0	-0.08497977
163	0x3d25604c	0.04037504
164	0x3c86b83e	0.016445275
165	0xbd620fed	-0.05519097
166	0x3c225de0	0.009910077
167	0xbcaf00ef	-0.02136275
168	0xbd884a4f	-0.06654798
169	0xbcaf592c	-0.021404825
170	0xbd4b5bbe	-0.04964804
171	0x3d4c6624	0.049902096
172	0x3cb70aaa	0.022343952
173	0xbd923134	-0.07138291
174	0xbd3bf85e	-0.04589116
175	0xbd9a2011	-0.075256474
176	0xbd235c50	-0.039882958
177	0xbd8a0883	-0.06739905
178	0xbdaca949	-0.08430726
179	0x3b48693d	0.0030580305
180	0x3cff1476	0.031137686
181	0x3d07f0e4	0.033188716
182	0x3caadd3a	0.020857442
183	0xbd34fbf9	-0.044185612
184	0xbd8c0bbd	-0.068381764
185	0x3d682bad	0.056682277
186	0xbbfc8268	-0.0077059753
187	0xbcfdebb4	-0.030996181
188	0xbd492d8a	-0.049115695
189	0x3c184863	0.009294602
190	0xbd0faa7b	-0.035074692
191	0xbcf0d625	-0.029398987
192	0x3cc21c63	0.023695176
193	0x3d4b6602	0.04965783
194	0x3cda4130	0.026642412
195	0x3ce77cc5	0.028257737
196	0x3c45d630	0.012074992
197	0x3d26fc33	0.04076786
198	0x3c3ee5ea	0.0116514955
199	0xbdac25c9	-0.084056444
200	0x3d8aec8c	0.06783399
201	0x3dafcd39	0.08584065
202	0xbd8b34d7	-0.06797188
203	0xbda52d6c	-0.08065304
204	0x3d95339d	0.07285235
205	0xbcca79f6	-0.024716359
206	0x3e0c9fa6	0.13732776
207	0xbdba86ff	-0.0910778
208	0x3d0387c4	0.032111898
209	0x3d032770	0.032020032
210	0x3d51cbe7	0.051219847
211	0x3ce7d8a5	0.028301546
212	0xbca0daf4	-0.019635655
213	0x3b9e4705	0.0048302435
214	0xbd81cd06	-0.06337933
215	0x3d054905	0.03254034
216	0xbc4d6dda	-0.012538398
217	0x3bb20ea7	0.0054338756
218	0x3c8c8401	0.017152788
219	0x3cc481df	0.023987709
220	0x3c09947e	0.00839722
221	0xbd5c72ec	-0.053820536
222	0x3b33ae8e	0.0027417275
223	0x3d274360	0.04083574
224	0xbb885b65	-0.0041612857
225	0xbd5fc1af	-0.05462807
226	0xbb13130c	-0.0022441773
227	0x3d24ab4a	0.040202416
228	0xbd04a417	-0.03238305
229	0x3ddb2d7a	0.10702033
230	0x3c0918f9	0.00836777
231	0x3c154f07	0.00911308
232	0x3d117f82	0.03552199
233	0x3d7588f1	0.05994505
234	0x3dca6eca	0.098844126
235	0x3d53988d	0.051659156
236	0xbdee2c8d	-0.11629591
237	0xbd492e3a	-0.04911635
238	0xbcfd23a1	-0.030900778
239	0x3d7fc147	0.062440183
240	0xbd2c0e6e	-0.04200595
241	0x3c8288f2	0.015934441
242	0x3cc64179	0.024201142
243	0xbceb9920	-0.02875954
244	0x3dc84686	0.09779076
245	0x3b231a5c	0.0024887538
246	0xbc47a5e6	-0.012185549
247	0xbc415007	-0.011798865
248	0x3cb62e50	0.02223888
249	0x3c94e909	0.018177526
250	0x3e124ef1	0.14287926
251	0xbce57d97	-0.028013987
252	0xbc9e9376	-0.019357424
253	0xbde983de	-0.11402105
254	0x3d0099bc	0.031396613
255	0x3d2f5ae4	0.04281129

fc2.bias f4 [10]
0	0xbd6b2259	-0.057405803
1	0x3c754020	0.014968902
2	0x3d2ad6d5	0.041708786
3	0x3c8f3a32	0.017483804
4	0x3c85d5eb	0.016337356
5	0x3d321980	0.04348135
6	0xbce111f0	-0.027474374
7	0x3d1f9a41	0.038965467
8	0x3cc1425d	0.023591215
9	0xbd5419c7	-0.051782396
