best_99.02.pth (torch_old, 609278 bytes, 59 tensors)

b1.conv1.weight f4 [32, 1, 3, 3]
000000 ce c9 27 be f3 65 3c 3e ce ab 96 be fb 85 35 3d
       -0.16385576 0.18398266 -0.29427952 0.044317227
000010 e0 ce 47 be 21 77 91 bc ce f3 51 3e ee d9 89 bd
       -0.1951251 -0.017757 0.2050316 -0.0673102
000020 b3 ca 2c 3e 27 72 87 3e 6b bd 07 3e 74 a1 89 3e
       0.16874199 0.2645428 0.13255851 0.2688099
000030 1d ea 96 bd 15 56 09 3e 93 63 6e 3d 2f 8b 36 bd
       -0.07368872 0.13411744 0.05820043 -0.04456633
000040 e8 dd 06 be 17 4d 72 3e 20 93 15 bc 47 cc 6e be
       -0.13170588 0.2366222 -0.009129316 -0.23320113
000050 e5 26 eb bd ec 0f 3a be bd bb 1e bc 50 8c ef 3d
       -0.11482028 -0.18170136 -0.009688315 0.11696684
000060 ac 65 e9 bc 4e ad a6 3e 79 a9 69 bc 2d cc 63 be
       -0.028490864 0.32554096 -0.014261597 -0.22245856
000070 32 37 71 3c d1 f7 67 be d2 bf 55 3e 49 25 b1 bd
       0.014722632 -0.22653128 0.20873955 -0.0864969
000080 6d 99 a4 be 7c b4 d2 bd 62 9e d0 bd f6 23 8d bc
       -0.32148305 -0.10288331 -0.10186459 -0.017229062
000090 d0 75 8a bc 28 43 a5 3e 28 5c 96 be 62 5e 12 3e
       -0.01690188 0.322778 -0.29367185 0.14293817
0000a0 eb 59 14 3e 5f 4b 2d be 64 59 b3 3e ca b7 37 bc
       0.14487426 -0.16923283 0.35029137 -0.011213252
0000b0 ad 57 fb 3d d1 c6 70 be 9d 91 5e 3e e7 c0 5c be
       0.12272582 -0.23513342 0.21735235 -0.21557961
0000c0 3e f7 1e be eb d8 00 bd e4 89 6b be ad 65 68 3e
       -0.15524003 -0.03145687 -0.2300182 0.22695036
0000d0 02 83 1d be c1 99 72 be 11 38 85 3c 30 ff 8e 3e
       -0.15382007 -0.23691465 0.016262086 0.27929068
0000e0 ae c7 00 3e a7 24 ce bd 7c 15 8b be c6 10 1f be
       0.12576172 -0.10065585 -0.2716483 -0.15533742
0000f0 31 37 ef 3d c0 4b cf 3b c9 75 f2 3d de 03 e3 bd
       0.11680449 0.006326169 0.11838872 -0.11084722
000100 29 e1 3d be 69 44 39 3e ff 22 0d bd 34 ba 96 3e
       -0.18542923 0.18092503 -0.034457203 0.29438937
000110 81 32 87 3e 3c 94 12 bd c2 d1 a2 3e f3 74 7c 3e
       0.2640572 -0.0357859 0.31800658 0.24653988
000120 9b be d3 bd f3 93 98 3e 98 0a ac 3e bd 0d 8a bd
       -0.103390895 0.29800376 0.33601832 -0.067409016
000130 75 06 8f be fe a8 d5 bd 80 1d 37 bc 1b 6a 2c be
       -0.27934614 -0.10432623 -0.011176467 -0.16837351
000140 26 f0 30 be bc 9d 65 bd d8 22 4d bd 14 bb 9a 3e
       -0.1727911 -0.05605863 -0.050082058 0.30220854
000150 40 2a a4 3e 9d fc fb bd e9 0a 52 be f5 26 9b be
       0.32063484 -0.123040415 -0.20511974 -0.3030316
000160 aa b6 ef bd 63 03 90 3d c6 12 83 bd 45 63 b3 3d
       -0.11704762 0.07031896 -0.06400065 0.087591685
000170 96 2a 7e be 9f 1b 4b be 6a ca ab bd 7b e6 0b 3c
       -0.24820933 -0.19834755 -0.08388217 0.008538838
000180 cd 42 b0 bd de 93 77 be 2b ca 41 3e 26 61 97 3e
       -0.08606491 -0.241775 0.18924777 0.29566306
000190 2f 9f d5 3d c1 05 93 3e fb 86 a0 be d2 ac 29 be
       0.104307525 0.28715327 -0.31352982 -0.16569832
0001a0 3f 6a 1c be d4 46 1d bd 05 cd 17 3e fb a7 26 be
       -0.15274905 -0.038397625 0.14824302 -0.16275017
0001b0 c7 19 86 be 9a f6 91 3e 66 b3 6d 3e 7d b9 65 be
       -0.26191542 0.28508455 0.23212966 -0.2243404
0001c0 0e 68 8d be f1 33 17 3e 4b 58 78 bd 8f b9 93 be
       -0.2761845 0.14765908 -0.060631078 -0.28852507
0001d0 5b b5 8d 3e 8e a7 15 3e a2 74 a8 bc 29 60 48 be
       0.27677426 0.14614698 -0.020563427 -0.19567932
0001e0 ff be cd 3d 54 3e 9e 3e 37 12 9c be ae b2 03 3e
       0.10046195 0.30906928 -0.30482647 0.1286113
0001f0 76 da 52 3e f4 47 08 3e 0d 2c 8c be e9 e6 00 3d
       0.20591149 0.13308698 -0.27377358 0.031470213
000200 0f 72 65 3e 06 92 7a 3e be 24 d4 3d 66 2c a9 be
       0.22406791 0.24469766 0.103585705 -0.33041686
000210 02 ff 88 3e 53 ee 06 3d 08 0d 56 bd f4 81 89 3e
       0.26757056 0.032942127 -0.05225852 0.2685696
000220 99 dd 85 3e 50 40 91 3c c4 25 98 be 86 41 70 3e
       0.26145628 0.017730862 -0.29716313 0.23462495
000230 e4 c0 ef bd 70 c3 7b be 13 0b 61 3e bc cd a9 be
       -0.11706713 -0.24586272 0.2197688 -0.33164775
000240 27 1f 67 be 33 b5 85 3e a3 50 0f 3e cb 48 57 3e
       -0.22570477 0.26114807 0.13995604 0.21023862
000250 3f 98 0d 3d 48 50 fa 3d e8 89 8d be c4 87 5e 3e
       0.03456902 0.12222344 -0.27644277 0.21731478
000260 3a c6 7a be a9 b2 b0 be be eb f8 3c 74 1c 98 3d
       -0.2448968 -0.34511307 0.030385848 0.07427302
000270 06 2c da bd 77 d8 51 be d3 b8 9c be fa 0d 3d bd
       -0.10652928 -0.20492731 -0.3060976 -0.046155907
000280 fa 8d 9e 3d e2 2f 35 ba 2c f2 7e bc 5f 16 61 3d
       0.07741924 -0.0006911737 -0.015560668 0.054952975
000290 a2 49 9d be 2d 72 87 3c 8a 48 7e bd e6 ef 98 3e
       -0.3072024 0.016533935 -0.062080897 0.29870528
0002a0 1f e5 4e 3e 1b d2 9a be e6 7e 88 3e c9 c2 da 3c
       0.2020459 -0.30238423 0.26659316 0.026704209
0002b0 03 5d 88 3d 5a 87 9d be cf 4f 64 3e 71 15 eb bd
       0.066583656 -0.30767328 0.2229607 -0.11478699
0002c0 ba 60 59 bd 90 04 86 3e 58 4a 33 bd aa bb d7 bd
       -0.05307076 0.26175356 -0.04377207 -0.10533841
0002d0 2c 3f 6a be d0 e5 24 be 69 f5 2f 3e db 5d dc 3d
       -0.2287566 -0.16103292 0.1718346 0.10760089
0002e0 7d 2c d3 3c ac 62 15 3e f4 b4 a2 3e 81 32 fd bd
       0.02577805 0.14588422 0.3177868 -0.123631485
0002f0 17 ed 25 3e 16 2d a9 be fd 5d ff bd 58 06 54 3e
       0.16203724 -0.3304221 -0.12469099 0.20705545
000300 6e 79 8f 3e 4b 7d 9a bd 41 a4 7e be 64 f7 40 be
       0.2802233 -0.07543429 -0.24867345 -0.18844372
000310 0e 00 8e 3e 93 7d 98 bd 6b 28 f3 bd d1 cf 1d 3e
       0.27734417 -0.074458264 -0.118729435 0.15411307
000320 95 b2 57 be 4e f9 79 be 75 a6 30 be 7c e4 29 3e
       -0.21064217 -0.24411508 -0.17250998 0.16591066
000330 b4 df 64 3e a8 a9 5e 3e 51 00 9b be cc 65 19 be
       0.22350961 0.21744406 -0.3027368 -0.14980239
000340 89 5a 10 be 80 b5 31 3d c1 22 7d 3e 75 cb e3 3d
       -0.14097036 0.043385983 0.24720289 0.11122791
000350 c5 07 a5 3e 86 cf 0b bd 97 67 fd bd 2d d8 ae be
       0.3223249 -0.034133457 -0.12373274 -0.34149304
000360 0b e4 84 bd 5d bd 67 3e 14 79 98 3e 75 2b 37 3e
       -0.06488808 0.2263083 0.29779875 0.17887671
000370 b3 20 85 be 18 7c cc bd 0f 73 9e 3e 2c 1c 06 3e
       -0.2600151 -0.099846065 0.30947158 0.13096684
000380 6e 45 0c bd 3f 1e d3 3d 73 0b 91 3e 20 e0 5c bd
       -0.0342459 0.10308503 0.28329048 -0.05392468
000390 02 eb ac 3b 04 bb 6f be 64 1a 53 be 70 7f bf bd
       0.0052770386 -0.23411185 -0.20615536 -0.09350479
0003a0 42 58 9e be d2 52 60 3e 89 e8 f4 3c 61 92 91 bc
       -0.3092671 0.21906593 0.029896038 -0.017769994
0003b0 9e 2e 09 3d 67 05 a0 bd 98 d7 fa 3b 66 df 75 3e
       0.033491723 -0.078135304 0.0076550953 0.24011001
0003c0 85 73 96 be 95 de ad 3e 61 41 46 be 13 ea 03 3e
       -0.2938501 0.3395888 -0.19360878 0.12882261
0003d0 c8 1c 29 be ac 72 71 3e 46 a1 4f 3e 91 f0 90 be
       -0.16514885 0.235789 0.20276365 -0.28308538
0003e0 2d c8 9c be d3 b5 93 be 06 39 99 bd 69 9a 54 be
       -0.30621472 -0.28849658 -0.074815795 -0.20762028
0003f0 c0 5e 8e bd 47 06 4d be c4 bc a8 be ea 49 76 be
       -0.06951666 -0.20021926 -0.32956517 -0.24051633

b1.bn1.weight f4 [32]
000000 7e 2f ce 3d 91 16 19 3f 79 63 f4 3e e1 01 61 3d
       0.10067652 0.5980006 0.47732142 0.054933432
000010 32 bf 63 3f 2b 70 5b 3c b6 2b 05 3e 56 65 1e ba
       0.88963616 0.013393442 0.13004956 -0.0006042322
000020 40 de 9d 3e 74 02 0b 3d 60 c8 f3 3b b2 09 a7 3e
       0.30833626 0.033937886 0.007439658 0.32624584
000030 ac 01 a8 3e 00 cd a6 b9 d5 87 b0 3e 35 98 9c 3e
       0.32813776 -0.00031814724 0.34478632 0.30584875
000040 e1 e2 20 3f 88 b3 31 3f 6a 63 41 3d 01 f1 11 3f
       0.6284619 0.6941457 0.04721395 0.5700837
000050 99 0e 0c 3f 0e 94 70 3e 25 47 2b 3f f1 33 f3 3e
       0.54709774 0.23493978 0.6690543 0.47500566
000060 46 aa e0 3d 1c a1 c3 3e 44 69 1a 3f 21 cd 46 3f
       0.10969977 0.38208854 0.6031687 0.7765675
000070 75 f0 96 3e 86 4c aa 3d 3c 7b 19 3e ec a1 ca 3e
       0.2948033 0.08315377 0.14988416 0.39576662

b1.bn1.bias f4 [32]
000000 d9 42 1e bd d4 71 ec bc ec da eb 3b 03 05 45 bc
       -0.03863797 -0.028862871 0.0071977284 -0.012025121
000010 07 05 01 3b cd 85 9f 3b 1b ef 03 bd 37 7c 95 bb
       0.0019686834 0.004868245 -0.03221045 -0.0045619267
000020 3b 7d ec 3c 4c 8a 9e bc 3e c5 a5 bc 41 37 c3 bc
       0.028868308 -0.019353054 -0.020235654 -0.023830058
000030 4f 84 20 bb 67 96 34 bc b2 11 9f 3c 8d 01 1a 3d
       -0.0024492925 -0.011022187 0.019417617 0.037599135
000040 fe 95 73 bc f8 20 ce bc b8 d9 40 bc 00 1e a1 3c
       -0.014867304 -0.025162205 -0.011770658 0.019667625
000050 70 66 ba bc c9 9c e2 3c 97 1f 28 bc ce 47 0b 3d
       -0.022753924 0.027662652 -0.010261438 0.034004025
000060 0b a7 12 bd 5e 3f 7e 3c 9a 8d c4 bb d3 3d 77 ba
       -0.035803836 0.015518038 -0.0059983255 -0.0009431515
000070 58 22 ac bc 76 6b ad 3c 3c f0 24 bd 03 b8 0c bd
       -0.02101247 0.021169405 -0.040268168 -0.034355175

b1.bn1.running_mean f4 [32]
000000 94 88 43 bd 3b b1 9c 3e a6 3b 52 bd 6c bc 9d be
       -0.047737673 0.30603966 -0.051326416 -0.30807817
000010 68 7c 59 3e 3a 04 96 be 05 aa 37 3d de 91 ac 3e
       0.21238863 -0.293001 0.044839878 0.33705038
000020 ca 6a cb bd 0d e2 6a bd f0 26 6c be 15 69 54 bb
       -0.09932478 -0.057344485 -0.23061728 -0.0032411267
000030 46 7b 85 bd 8b f9 39 3e ab 2c b8 3d 07 70 23 3c
       -0.06517653 0.181616 0.08992895 0.00997544
000040 3c 44 be 3d 32 25 9a be db 39 53 3d 95 9f 7e bc
       0.092903584 -0.30106503 0.051568847 -0.015540977
000050 34 e0 16 3e e1 d6 cc bd e5 27 d6 bd 62 40 b2 bc
       0.14733964 -0.100019224 -0.10456828 -0.021759216
000060 59 15 7c 3e 63 41 d2 bd 5b c3 dc 3c 10 b4 8b be
       0.24617518 -0.10266378 0.026948621 -0.27285814
000070 0d 3d 98 be ae 69 a4 bd 2b f5 8e 3e 60 7e 3e be
       -0.29734078 -0.08027969 0.27921423 -0.18602896

b1.bn1.running_var f4 [32]
000000 1e 02 85 3b 6e 84 87 3d da 50 98 3b 07 9c 88 3d
       0.0040590903 0.06617056 0.00464831 0.06670385
000010 5b f0 32 3d 55 14 7d 3d 16 b6 18 3b 6a d2 bf 3d
       0.043686252 0.06178697 0.002330189 0.09366305
000020 ce 7a 6b 3c 69 4d af 3b ca c6 1a 3d 55 db 7d 3b
       0.014372541 0.005349804 0.037787236 0.0038735468
000030 72 60 e4 3c 0b 60 13 3d de f5 28 3c 79 56 0e 3c
       0.02787802 0.035980266 0.010312526 0.008687609
000040 49 fe 32 3c 70 ed 7d 3d 5a 27 8e 3b 0f 3f 77 3c
       0.010924884 0.061994016 0.004338187 0.015090718
000050 a1 73 96 3c 73 09 02 3c 36 8e 11 3c 6f 80 14 3b
       0.018365683 0.007936823 0.008884003 0.002265956
000060 78 90 2a 3d 00 17 36 3c a2 ad 9e 3b 5f 72 73 3d
       0.041641682 0.011113882 0.004842476 0.059435245
000070 6d 41 88 3d 83 bc 25 3c c7 4d 60 3d cf 22 e9 3c
       0.06653104 0.0101157455 0.054761674 0.02845898

b1.conv2.weight f4 [32, 32, 3, 3]
000000 a1 b3 1e bd 5a b7 25 3c cb 87 62 3b af 65 4c 3c
       -0.038745526 0.010114515 0.0034565802 0.012475415
000010 42 b3 10 bd 88 88 b9 bd 95 4f 95 3c cf a3 29 bd
       -0.035327204 -0.090592444 0.018226424 -0.041415986
000020 b8 2e 55 bd ef c7 8b bd f9 ce 0b bc 28 93 45 3c
       -0.052046508 -0.06825244 -0.008533233 0.012059011
000030 33 b4 3a bd e5 12 f8 bc 00 d3 a6 3c d1 26 73 3c
       -0.045582008 -0.030282447 0.020364285 0.0148407975
000040 3e 6d 83 bd 28 3d fb 3c 55 d9 fe 3b fc 9c 48 bd
       -0.06417321 0.03066881 0.007777373 -0.048977837
000050 49 f6 07 bd e2 f9 96 3c 5f c8 9b 3c cf be 54 3d
       -0.03319386 0.0184297 0.019016443 0.05193978
000060 2c 22 05 3d c6 18 ba bb 69 80 6e 3c 27 84 5b bb
       0.032503292 -0.0056792228 0.014556983 -0.0033495517
000070 56 16 18 3d 97 00 f9 3b 3a 17 a5 3c 15 cd 87 bd
       0.037130676 0.0075989473 0.020152677 -0.06630913
000080 ac 29 8d bd fe 22 94 3c be 80 40 bb 11 a4 91 bd
       -0.06892714 0.018083092 -0.0029373611 -0.07111371
000090 64 c5 60 bd 15 cc 6c bd b8 28 4f bd bf f8 f6 bc
       -0.054875746 -0.057811815 -0.05057594 -0.030147908
0000a0 c2 63 fa ba 29 ef 95 bd 29 89 78 bc f6 37 a3 3a
       -0.0019103216 -0.07321007 -0.01516942 0.0012452591
0000b0 00 cc cb bc 1e dd ce bb e3 72 e8 bc 52 ad 9e 3c
       -0.024877548 -0.0063129803 -0.028375095 0.019369755
0000c0 10 aa eb 3c 85 09 26 bd 83 45 54 bc 47 7f 8a 3b
       0.028767616 -0.040536422 -0.012956026 0.0042265984
0000d0 fe 5e 1e bd 98 f2 09 bb ba 27 21 bd a2 31 a5 3c
       -0.03866481 -0.0021049138 -0.039344527 0.020165268
0000e0 38 83 7e bb d4 03 8f 3b ae 8a 21 3d c4 67 8a bd
       -0.0038835537 0.00436447 0.039438896 -0.06758073
0000f0 9e 9e 82 3d 2c 32 a3 bc 76 10 08 3d 72 15 09 3d
       0.0637791 -0.019921385 0.033218823 0.033467717
000100 c4 06 9a 3c 1c d2 d2 3c f6 15 5d bd c1 77 3a 3c
       0.018802054 0.025734954 -0.05397602 0.011381091
000110 bc 05 5b bd 6d 75 36 bd 7d 10 f7 3c f6 ee 30 bd
       -0.053472266 -0.04454558 0.03015923 -0.04319664
000120 e2 ca 64 bc 3e 0a 50 3b 69 39 66 3c d3 89 35 bb
       -0.013964387 0.0031744386 0.014051774 -0.0027700558
000130 0b d1 8c bc 1b 63 ae bb 6d 3f 92 3d 14 f3 de 39
       -0.017189523 -0.005321873 0.07141004 0.00042524247
000140 be 06 33 bd 03 57 28 bc a2 21 4e 3d 21 41 ae 3c
       -0.0437076 -0.010274651 0.050325043 0.02127129
000150 67 a8 88 bc ab 7a b3 3c ee ae dc bc 1b ae 10 3d
       -0.016681863 0.021909079 -0.026938882 0.03532229
000160 8a 42 00 3d 63 69 99 bc dc 1c 6b 3d 3e 1e 50 bd
       0.031313457 -0.01872701 0.05740057 -0.05081009
000170 fe 38 59 bd 1a 49 b4 3b bc f8 27 3d 04 f7 18 3c
       -0.053032868 0.0055018784 0.041008696 0.009336237
000180 3e 30 66 3d 96 b9 c1 bc 7f b6 a7 3c eb 26 26 bd
       0.05619835 -0.023648065 0.020472763 -0.04056446
000190 86 35 ea ba 61 94 cb bc c7 ad 20 3b f1 0d 2c bd
       -0.0017868734 -0.024851026 0.0024517642 -0.042005483
0001a0 6f c6 a8 3c d7 ca c6 3b a3 08 a1 3d 8d db 7e 3d
       0.020602433 0.006066661 0.078629754 0.0622211
0001b0 e0 88 69 bc 4b f4 67 3d b5 71 20 bd 0b 84 19 3d
       -0.014253825 0.05662946 -0.03917094 0.03747944
0001c0 2a 2a 85 3d 34 e2 35 3c fe 51 b8 3c 07 e4 41 3d
       0.06502183 0.011101294 0.022500034 0.047336604
0001d0 bd cb 06 3c 02 15 4d bd 95 8b 63 3b 99 5e a4 3c
       0.008227286 -0.050068863 0.0034720649 0.020064639
0001e0 20 b5 c4 3c c8 5f e1 3c 22 a6 32 3c 6d 48 b5 ba
       0.024012148 0.027511492 0.010903867 -0.0013830789
0001f0 56 20 74 bc c5 e5 62 3d 4d 02 a9 3c ce 5d 81 bc
       -0.014900288 0.055394907 0.02063098 -0.0157918
000200 42 8f 48 bd 78 1e 5e bd f2 a3 d2 3b a8 a7 60 bd
       -0.048964746 -0.054228276 0.006428235 -0.05484739
000210 56 7b 68 bd b5 9a 74 bd b8 7a 93 bc 05 8b cd 3c
       -0.056758247 -0.059717853 -0.018002853 0.025090704
000220 f9 57 43 bd a9 3a ec bc 28 19 7b bd d8 78 84 bd
       -0.04769132 -0.028836565 -0.061303288 -0.064683616
000230 98 79 10 3d d2 54 96 3b 48 3b 9e 3b da d9 da 3c
       0.03527221 0.004587748 0.004828844 0.026715208
000240 d6 97 5e 3d 80 57 00 bd 27 c1 bf 3c b2 0b c6 bc
       0.05434402 -0.031333447 0.023407532 -0.024175499
000250 68 02 f7 3b c8 6f 3f bd ba 6f 90 3b 2a a2 49 bc
       0.0075381286 -0.046737462 0.00440785 -0.012306729
000260 9a bb 36 3d 18 85 98 3c 85 f6 e2 3b 26 d9 21 bd
       0.044612505 0.018618152 0.00692636 -0.03951373
000270 82 a5 74 3c 15 8e 0d 3c 28 b5 37 bd ed c7 4d bc
       0.014932038 0.008639832 -0.0448505 -0.012559873
000280 05 be 86 3c 7d a1 7e bd 52 32 88 bd 12 7a 9b bd
       0.01644803 -0.062165726 -0.06650223 -0.075916424
000290 ae 68 7e 3d e5 c1 c0 bc 28 85 10 bc 72 9f 9a 3d
       0.06211155 -0.023529956 -0.008820809 0.07549943
0002a0 de c5 bd bb 9d 59 23 bd d5 34 cf 3c 1a e3 02 bd
       -0.00579141 -0.039880384 0.025293747 -0.031954862
0002b0 c7 cc 81 bd 3f 64 db bc e2 7b a6 bd 56 43 5d bc
       -0.06337886 -0.0267812 -0.081290975 -0.013504824
0002c0 97 b9 82 bd e1 92 93 bd e0 95 18 3c 93 d5 82 bd
       -0.06383055 -0.07205749 0.009313077 -0.06388392
0002d0 6c a2 20 3d ba 44 99 bd 54 b0 61 bd f5 82 01 3d
       0.039217398 -0.07483812 -0.0550998 0.03161903
0002e0 e2 c6 94 bc 0b 1f ac bc d3 d0 73 bc 9d cd 22 3d
       -0.018161241 -0.021010896 -0.014881331 0.03974687
0002f0 9d 95 82 3d bd 5d 82 3c fc 8c 1b 3c 13 83 0d bb
       0.06376193 0.015913839 0.0094940625 -0.002159302
000300 fd 11 2c 3c 14 b5 3f bc 5d 8c 90 bd 25 f3 2d bc
       0.010502336 -0.011700887 -0.07058022 -0.010617052
000310 d7 0e 47 3d 5f b9 11 3c 5c 43 78 bd 13 de d8 bc
       0.048598137 0.008894294 -0.060611114 -0.02647308
000320 99 34 4d bd 08 c3 ff 3b 92 33 cd bb 30 6e 25 bd
       -0.05009899 0.007805232 -0.006262251 -0.040388286
000330 cc 59 c2 ba dd af 2d 3d 4d 24 be 3c d7 e4 8d bc
       -0.0014827787 0.042404044 0.023210669 -0.017321033
000340 fe 6c ca 3c 30 4b 38 bd d9 3c e6 3a 0f b1 ad 3c
       0.024710175 -0.04499358 0.0017565741 0.021202592
000350 6b 1a 87 bc 48 55 c4 bb dd 0e e8 3c aa 42 c2 bb
       -0.01649209 -0.0059916116 0.0283274 -0.005928357
000360 8d 52 8b bb 2d 25 9a bd 85 65 58 bd f8 6c 7d bd
       -0.004251784 -0.07526622 -0.05283119 -0.0618715
000370 ff 98 1d bd 34 b5 01 3d de 2a 52 3c b0 12 e2 bc
       -0.038475987 0.03166695 0.012827603 -0.027596802
000380 66 45 5d 3b 01 1a 8b 3b bd d1 0b 3d 31 f0 5a bc
       0.0033763289 0.0042450433 0.03413557 -0.01336293
000390 c5 80 46 3d 84 c9 1c 3c 84 32 01 3b 73 a8 07 3d
       0.048462648 0.009569529 0.0019713948 0.03311963
0003a0 16 ef 7b bb 2e fd f4 3c 8c 9c 85 3c 1d 02 9a 3d
       -0.0038442067 0.029905882 0.016309999 0.07519934
0003b0 b5 83 e5 bc a1 84 87 3c 0a 00 94 3d 8d 6e 4c 3d
       -0.028016904 0.016542735 0.0722657 0.049910117
0003c0 a0 60 32 3d fa 33 11 bd 1b b1 9a bb b3 6e 0e 3d
       0.04354918 -0.03544996 -0.0047208196 0.03477354
0003d0 7f 60 9d 3c b6 5d f3 bc af 9b 36 bd f6 ca 91 3b
       0.019211052 -0.02970777 -0.044582065 0.0044492437
0003e0 91 34 3f 3c 90 b0 0b bc e8 c1 85 3c bc a5 92 3c
       0.011670248 -0.0085259825 0.016327813 0.017901294
0003f0 47 a8 c8 bc 0c 0b 0d 3d eb b7 0a 3d 84 e9 2c 3d
       -0.024494303 0.034434363 0.033866804 0.042214885

b1.bn2.weight f4 [32]
000000 8d ef bc 3d 04 1a 27 3f 1e df 08 3f 35 7e ae 3e
       0.09225378 0.6527407 0.5346545 0.34080663
000010 cd 5a f7 3e 89 aa 98 3e d4 99 d3 3e e4 27 24 3f
       0.48311463 0.29817608 0.413283 0.6412337
000020 eb 78 15 3e 98 b3 ea 3e 92 ae 74 3d 97 67 59 3f
       0.14596908 0.45840144 0.059736796 0.8492369
000030 75 d6 c2 3e 68 7c 28 3d 06 45 57 3f 7b 21 8d 3e
       0.38054243 0.041134268 0.84089696 0.27564606
000040 94 c1 8e 3d 09 a0 bf 3e bb 33 43 3f 4f 6f 58 3f
       0.06970516 0.37426785 0.7625081 0.84544843
000050 86 a2 0d 3f b9 34 8d 3e 27 82 0f 3f 90 3d f3 3d
       0.55326116 0.27579287 0.5605797 0.118769765
000060 68 92 7b 3f 54 ca c3 3d 1b ac f5 3e 84 11 3d 3f
       0.98270273 0.095600754 0.4798287 0.7385485
000070 ee f6 eb 3e e7 bf 12 3e b9 7f 7e 3f 7c f2 85 3e
       0.4608683 0.14331017 0.9941364 0.26161563

b1.bn2.bias f4 [32]
000000 68 e2 12 3c 3c 3d e6 3c d7 6f a8 3c 39 a0 d5 bb
       0.008965112 0.02810537 0.020561142 -0.006519344
000010 38 5e 8a bb f8 52 1a bd 48 16 11 3c 10 16 4d bc
       -0.0042226575 -0.03767678 0.00885541 -0.012517467
000020 d9 ac 74 bc d4 9c ee bc 30 83 61 3c 08 aa 8e b9
       -0.014933788 -0.029127516 0.013764188 -0.00027211034
000030 a3 c4 6e bc 1d cb 9e bb ae 1c 2e bc 21 75 47 bd
       -0.014573249 -0.0048459903 -0.010626955 -0.048695687
000040 5e 5c 34 3a 9a 65 f3 bb 77 24 23 3c cd 53 84 bc
       0.0006880219 -0.0074278833 0.009957424 -0.01615324
000050 74 a3 3d bc ae de ae bc ba 87 3a bc 48 ce 4e bc
       -0.011574615 -0.021346416 -0.011384899 -0.0126224235
000060 f8 fc e2 bc 69 ca 14 bc ae 97 9f bc 15 c6 25 bc
       -0.027708516 -0.0090814615 -0.019481506 -0.010118027
000070 28 f9 55 3c ee 8b 29 3b 6d d6 05 3d 94 d1 18 bd
       0.013059892 0.0025870758 0.032675195 -0.037309244

b1.bn2.running_mean f4 [32]
000000 5e 9e 41 be 2f c6 54 3d c0 3a bc be be 99 f5 bb
       -0.18908069 0.051946815 -0.36763573 -0.007495134
000010 39 e9 1a 3e 5b 93 81 3c 49 18 6c be bc 27 c5 3c
       0.1512803 0.015817335 -0.23056139 0.024066798
000020 57 1d 00 be 4f 68 da 3d af 1e 0f be ea 08 6d bc
       -0.12511192 0.106644265 -0.13976549 -0.014467457
000030 20 54 fd bc a6 87 03 be 86 dd 34 bd 69 07 4b bc
       -0.030923903 -0.12844715 -0.044156574 -0.012391903
000040 d4 78 60 bd e1 eb 1a 3e c6 d8 84 be b6 30 7a be
       -0.05480273 0.15129043 -0.25946635 -0.24432644
000050 76 6a cf bd 91 1b 42 3e e7 e9 75 3e a4 25 94 3b
       -0.10127728 0.18955828 0.24015008 0.0045210887
000060 3a 29 e4 bd d3 c3 85 bd 95 8f 2a 3d 42 f9 be 3d
       -0.11140676 -0.06531491 0.041640837 0.09324886
000070 22 48 fc bd d1 a5 09 be 60 f4 e8 bd 55 70 dc 3d
       -0.12318446 -0.1344216 -0.11374736 0.10763613

b1.bn2.running_var f4 [32]
000000 18 da d7 3d 09 26 ab 3d f5 ac a6 3d c4 08 0c 3d
       0.10539645 0.08356864 0.08138458 0.034188047
000010 54 36 ad 3d d3 23 08 3d 4c 50 3b 3d 30 1b 7f 3d
       0.08457628 0.03323729 0.045730874 0.062281787
000020 56 0c 7a 3d dd 73 0e 3d 67 2f 43 3d c1 8b e6 3c
       0.06104692 0.034778465 0.04765263 0.028142812
000030 4e 74 89 3d e0 79 af 3d b4 d0 8e 3c 65 8e f3 3c
       0.067116365 0.08568168 0.017433502 0.029730985
000040 28 d7 96 3d aa db 6d 3d bf 29 2f 3d 5f 3d 00 3e
       0.073652565 0.058070816 0.04276442 0.12523411
000050 5b 6e b8 3d 80 fc 26 3d 85 01 69 3d c4 f5 d8 3c
       0.09005424 0.040768147 0.056886215 0.026484378
000060 ed 49 3b 3d 7a aa bb 3d 73 18 83 3d 19 f6 d8 3d
       0.045724798 0.09163375 0.06401148 0.105938144
000070 50 ec ae 3d ab 1f 02 3d 90 3f 25 3d 7b 4d 2b 3d
       0.08541167 0.031768482 0.04034382 0.041821938

b1.downsample.0.weight f4 [32, 1, 1, 1]
000000 4a 6d 16 bf 11 cb 37 bf 8d b0 5e bf 90 25 46 3f
       -0.5876051 -0.7179423 -0.86988145 0.77401066
000010 a6 23 a1 3c 14 07 bd bd 75 58 78 bf 5c fc 6c 3f
       0.019670319 -0.09229866 -0.97009975 0.9257257
000020 c0 cb 5a 3f db 91 b7 3e 92 39 fb be 87 55 0f 3e
       0.8546715 0.35853466 -0.4906736 0.1399747
000030 b0 8d 40 3d 3d 85 36 bf 99 e2 87 be 6e 0d f4 be
       0.047010124 -0.71297055 -0.26540068 -0.47666496
000040 c2 6d c8 3e cb 69 61 3f ea 80 ee be 9e 58 2e 3f
       0.3914624 0.8805205 -0.4658273 0.6810397
000050 40 6b a5 3e 49 f3 36 3f 65 ad f2 3e d5 95 31 be
       0.32308388 0.71464974 0.47397915 -0.17342313
000060 25 87 c6 3e b0 c9 89 3e 3b b5 25 3f ec 52 b2 3e
       0.38774982 0.26911688 0.6472966 0.3482889
000070 6c 39 6b bf 6d 17 75 3f 47 12 5e bf d6 5b c6 be
       -0.91884494 0.9573887 -0.8674664 -0.3874194

b1.downsample.1.weight f4 [32]
000000 91 fd a9 3e 61 f9 12 3f da bb 7b 3f 57 83 69 3f
       0.33201268 0.5741177 0.98333514 0.91216034
000010 0f aa 04 3f e6 63 cd 3e b3 0f 3f 3f fc e8 35 3e
       0.5182199 0.4011528 0.7463333 0.17764658
000020 0d da 48 3f 0a 36 42 3f a5 4e 70 3f cf 3e 61 3f
       0.7845772 0.7586371 0.9387 0.87986463
000030 ca 18 a6 3d a6 e1 1b 3f 92 74 96 3e df 04 1b 3f
       0.08110197 0.6089119 0.2938581 0.6055431
000040 be f1 e3 3e a2 cc c5 3e 1f 6c 38 3e 1f b9 4b 3f
       0.44520372 0.38632685 0.18009995 0.7957935
000050 af a2 1e 3f 2d 6a 01 3f bc 29 32 3f c9 73 e9 3e
       0.61966985 0.50552636 0.6959493 0.4559615
000060 55 c2 7a 3f d6 35 3e 3e 19 79 ab 3d ce 3d 4e 3f
       0.9795278 0.18575224 0.08372707 0.80563056
000070 18 01 32 3e 34 57 29 3f cc c0 f5 3e 72 ac 89 3e
       0.1738323 0.66148686 0.47998655 0.26889378

b1.downsample.1.bias f4 [32]
000000 68 e2 12 3c 3c 3d e6 3c d7 6f a8 3c 39 a0 d5 bb
       0.008965112 0.02810537 0.020561142 -0.006519344
000010 38 5e 8a bb f8 52 1a bd 48 16 11 3c 10 16 4d bc
       -0.0042226575 -0.03767678 0.00885541 -0.012517467
000020 d9 ac 74 bc d4 9c ee bc 30 83 61 3c 08 aa 8e b9
       -0.014933788 -0.029127516 0.013764188 -0.00027211034
000030 a3 c4 6e bc 1d cb 9e bb ae 1c 2e bc 21 75 47 bd
       -0.014573249 -0.0048459903 -0.010626955 -0.048695687
000040 5e 5c 34 3a 9a 65 f3 bb 77 24 23 3c cd 53 84 bc
       0.0006880219 -0.0074278833 0.009957424 -0.01615324
000050 74 a3 3d bc ae de ae bc ba 87 3a bc 48 ce 4e bc
       -0.011574615 -0.021346416 -0.011384899 -0.0126224235
000060 f8 fc e2 bc 69 ca 14 bc ae 97 9f bc 15 c6 25 bc
       -0.027708516 -0.0090814615 -0.019481506 -0.010118027
000070 28 f9 55 3c ee 8b 29 3b 6d d6 05 3d 94 d1 18 bd
       0.013059892 0.0025870758 0.032675195 -0.037309244

b1.downsample.1.running_mean f4 [32]
000000 c1 58 5c be 8c 12 86 be 30 72 a2 be 8d e4 90 3e
       -0.21518232 -0.26186025 -0.31727743 0.2829937
000010 ca c2 e8 3b 53 2e 0b bd 15 38 b5 be b5 2d ad 3e
       0.007103299 -0.033979725 -0.3539435 0.33823934
000020 77 c4 9f 3e 0e f7 05 3e f1 9f 37 be 40 ec 51 3d
       0.31204578 0.13082525 -0.17932107 0.051250696
000030 43 4a 89 3c 95 71 85 be 69 6b c6 bd c9 58 32 be
       0.016759044 -0.2606322 -0.096884556 -0.17416681
000040 fd 32 12 3e e5 86 a4 3e ec 7f 2e be 5f a6 7e 3e
       0.14277263 0.32134166 -0.17040986 0.24868153
000050 ba af f1 3d fa 6d 85 3e b5 21 31 3e 89 9e 82 bd
       0.11801095 0.26060468 0.17298014 -0.063778944
000060 6f 29 11 3e b4 64 c9 3d fd cc 71 3e c7 03 02 3e
       0.14175962 0.09833661 0.23613353 0.12696753
000070 8b 77 ab be 38 ea b2 3e bf f7 a1 be 61 3c 11 be
       -0.33489642 0.3494432 -0.31634328 -0.14183189

b1.downsample.1.running_var f4 [32]
000000 38 4c 14 3d d8 9b 5b 3d a8 32 a1 3d 53 3e 80 3d
       0.0362055 0.05361542 0.0787099 0.062618874
000010 a8 88 25 38 22 ae 6c 3a bd 9b c8 3d cb 33 b7 3d
       3.9466337e-05 0.00090286334 0.0979533 0.089454256
000020 46 ed 9b 3d d3 42 5b 3c 0d f9 cd 3c 00 99 06 3b
       0.07613616 0.013382631 0.02514317 0.0020537972
000030 75 5c 66 39 57 8e 59 3d 45 80 f0 3b e8 4c c2 3c
       0.00021968952 0.05311426 0.0073395097 0.023718312
000040 2f 91 82 3c eb 5a a5 3d 34 02 ba 3c b0 0f 46 3d
       0.01593837 0.08073982 0.022706129 0.048354805
000050 c1 69 32 3c 08 82 59 3d 57 a9 bf 3c 31 74 50 3b
       0.0108894715 0.053102523 0.023396177 0.0031807537
000060 4b b8 80 3c 3a c5 f7 3b 83 93 32 3d 5c 84 4e 3c
       0.015712878 0.007561353 0.04359771 0.012604799
000070 37 99 b3 3d 5e 8a c3 3d 02 40 a0 3d 98 da 80 3c
       0.08769458 0.09547876 0.078247085 0.015729234

b2.conv1.weight f4 [32, 32, 3, 3]
000000 d6 2f a2 bc f7 ab 7a bd 41 51 23 3d 5a 3b 98 bd
       -0.0197982 -0.061199155 0.03987241 -0.074331954
000010 92 7b ad 3c 89 c2 8b 3c 1e ee aa bc 62 02 1a 3d
       0.021177087 0.017060535 -0.020865496 0.03759993
000020 53 2d cb bc 08 05 8d bd a4 0d 30 bc 48 20 47 bd
       -0.024801886 -0.06885725 -0.01074544 -0.04861477
000030 cb 58 dc 3a 5b 12 73 3c 4e 73 0f 3d e5 2f 77 bd
       0.001681113 0.014835919 0.035022072 -0.06034841
000040 bb dc 26 3c d9 e8 89 bd 6f a1 0e bd 2f e0 82 3c
       0.010184462 -0.06733865 -0.034821924 0.01597604
000050 d7 12 84 3d 7d 56 36 bd a5 70 54 bc cb 8f 90 bc
       0.06448906 -0.044516075 -0.01296631 -0.01764669
000060 c7 92 99 bc 6f 96 80 bc 0e 7e 06 bd 41 fd 44 3d
       -0.018746747 -0.015696732 -0.03283506 0.048093084
000070 fc 27 9b 3c 90 45 01 3d 16 a7 1c 3c df e1 c3 3c
       0.018939964 0.03156048 0.009561321 0.023911415
000080 ac 9a 8d 3c 8d 80 b5 3c 38 ce 54 3d 74 6f 3f bd
       0.017285667 0.022156024 0.051954478 -0.04673715
000090 84 64 67 3c 62 07 3d bd 07 66 70 bd c3 d7 b8 3c
       0.014123086 -0.04614962 -0.05869105 0.02256382
0000a0 86 df 81 bd a7 db 39 3d c2 74 55 3b 2b 1f ad bc
       -0.06341462 0.045375492 0.0032570814 -0.021133026
0000b0 7a b3 47 bd 25 d4 9f 3c a1 e1 af 3c b8 e3 2d 3d
       -0.048755147 0.019510338 0.021469893 0.042453498
0000c0 93 dd a6 bc 78 48 17 bd 18 5e 90 3c 96 27 9c bd
       -0.020369327 -0.036934346 0.017622992 -0.07624738
0000d0 80 07 41 3b 35 3e 59 bd 1a 2c ee 3b 3c e7 6e bc
       0.0029453933 -0.05303784 0.007268441 -0.014581498
0000e0 86 04 20 3d c6 12 0a 3c 16 88 3d 3c 00 28 89 bc
       0.039066814 0.0084273275 0.01156809 -0.016742706
0000f0 fa cd 88 bd 34 3d 39 bd 61 cc 59 3c 66 74 f7 3c
       -0.06679912 -0.045224383 0.013293357 0.03020687
000100 59 2c 40 3d ca 89 36 3d df 99 ad bc 82 24 01 bc
       0.046917293 0.044565 -0.021191536 -0.007882239
000110 96 db 15 bd cd 1c ae 3c c2 0b cf 3c 7e 7a a7 3b
       -0.036586367 0.021253968 0.025274161 0.0051110378
000120 9c ef 19 3d e2 bd 01 bd a7 74 46 bc cd 71 d8 3a
       0.037582025 -0.031675227 -0.012112773 0.0016513407
000130 92 7e 79 bc 59 e8 4f 3d 0d ca 3a 3d ee a1 15 bb
       -0.015227931 0.050758693 0.045602847 -0.0022832113
000140 53 de ef bc c7 90 c6 bc 08 ac 17 3d 6c b5 29 3c
       -0.029280817 -0.024238957 0.037029296 0.010358196
000150 65 90 fe 3c bc bb 30 3d 7c 3e 55 3d 8c 61 fb 3b
       0.031074712 0.043147787 0.052061543 0.0076715406
000160 bb be 03 bd ac 74 a7 bd 91 37 2d bb 9d b1 93 bc
       -0.032164317 -0.0817655 -0.0026430825 -0.018029029
000170 2d 9d 09 3d 94 c3 f7 bc 9f f6 8b 3c b8 45 cf bc
       0.03359716 -0.030244626 0.017085372 -0.0253018
000180 5b b5 10 3c 97 b9 57 bd f8 ae fa bc b5 00 d1 3c
       0.008832301 -0.052667227 -0.03060101 0.025513032
000190 78 76 dd bc 2a 69 03 bd 90 e3 f6 3b 22 8e 85 bd
       -0.02703403 -0.032082714 0.007534452 -0.0652125
0001a0 13 ad 09 bd f2 52 b7 bd d4 18 78 bb 21 a3 c4 bd
       -0.033612322 -0.089513674 -0.0037856596 -0.09601427
0001b0 03 8d 2b bd 90 31 1e 3d 21 1a 9d bc 84 22 18 3d
       -0.041882526 0.038621485 -0.019177498 0.03714229
0001c0 3e 4f 85 bd 6b ae 53 bd d3 1f 4d bd e2 05 5f bd
       -0.06509255 -0.05168001 -0.050079178 -0.05444897
0001d0 4a 6b 5c 3c 49 dc 2f bd a4 a6 f9 3c c3 a2 4b bd
       0.013453314 -0.04293469 0.030474968 -0.04971577
0001e0 37 99 88 3c bd f3 f1 bc 96 31 39 3c 08 d1 9a 3c
       0.016674621 -0.029535169 0.011303326 0.018898502
0001f0 91 92 74 3c 9b 8b e3 3b ce 0a cb 3c d3 d9 38 3d
       0.014927522 0.0069441325 0.024785426 0.04512961
000200 fc 6a 3c bd 0a 5a 89 ba 68 a9 6a 3c ed d5 f6 3c
       -0.046000466 -0.0010479104 0.014322616 0.030131305
000210 a9 34 91 bd 9e 76 49 bd b7 24 85 bd 9d 96 8f bd
       -0.07090122 -0.049185388 -0.065011434 -0.07011149
000220 e9 3f 9c bb 50 d0 dd bc 1c 56 5c bc 71 46 47 bd
       -0.004768361 -0.02707687 -0.013448264 -0.048651163
000230 a0 64 8d bd 12 5e 8e bd b5 5c 28 bd 45 00 88 bb
       -0.06903958 -0.06951536 -0.041104037 -0.0041504228
000240 2e 1f 0e bc 4a ab 1d 3d 41 28 02 3d 12 f7 dc bc
       -0.008674426 0.038493432 0.03177667 -0.026973281
000250 b8 68 4f bd 4d 8f 63 3d c7 24 16 3d 33 f3 aa 3c
       -0.050636977 0.055556584 0.036656167 0.02086792
000260 10 47 03 bc e2 0a 66 bc 76 d4 96 bc b6 dc a6 bd
       -0.008012548 -0.014040681 -0.018411856 -0.08147566
000270 d8 45 87 3c 44 d4 2b 3d 3d c6 ab 3b f2 d9 46 3c
       0.016512796 0.04195048 0.0052421377 0.012136923
000280 3c a1 8b 3b e4 67 4e bd 4c 99 a0 bd 86 4a 17 bd
       0.004261164 -0.050392047 -0.07841739 -0.036936305
000290 84 6b 21 bd db a6 8e 3b ff f8 15 bd 0c 98 aa bd
       -0.039409176 0.004353387 -0.036614414 -0.08329782
0002a0 a2 39 f0 3b 01 e1 83 bc 33 1a 30 bd 30 1a db bb
       0.007331089 -0.016098501 -0.042993736 -0.0066864714
0002b0 22 10 b4 ba 7f a5 56 3d cf e7 3e 3d 08 8b 79 3d
       -0.0013737718 0.052403923 0.04660779 0.060923606
0002c0 0e d0 31 3d bb b9 80 3d 95 05 b1 bc d1 0e e4 3b
       0.043411307 0.06285425 -0.021609107 0.006959774
0002d0 53 5c 8e 3c d9 d1 dd 3c f1 d0 4c 3d 76 40 77 3d
       0.017378008 0.027077602 0.05000395 0.06036421
0002e0 80 39 01 bb 13 b4 8b ba c9 79 34 bb 80 fd 89 bc
       -0.001971811 -0.0010658525 -0.002753841 -0.016844511
0002f0 6d 13 a7 bc 65 83 4e 3d 66 bb fd bc 01 d5 5e 3d
       -0.020395005 0.050418276 -0.030973148 0.054402355
000300 24 43 6e bd 3c 1f ee bb ff 4c 22 3d 46 5f 51 3d
       -0.0581695 -0.007266907 0.03962421 0.05111625
000310 f9 b7 bb 3c 39 f4 db 3b 8e 23 61 3d 09 08 c0 bc
       0.022914873 0.006712463 0.05496555 -0.023441331
000320 c6 f8 cf 3c 4b 5a 21 bd 45 00 3a 3d 1c 64 20 3b
       0.02538718 -0.03939275 0.045410413 0.0024473732
000330 3f 27 97 bc 4b 00 47 bd 7b f7 31 3c e3 ef a4 3b
       -0.018451331 -0.048584264 0.010862227 0.0050334795
000340 83 a9 12 bc c4 98 bd bc 20 f2 8b bc aa 02 74 bc
       -0.008951548 -0.023144133 -0.017083228 -0.014893213
000350 6c 2b 11 3d 1b 26 19 bd 41 33 5a bd 4a bf 50 bd
       0.0354418 -0.037389856 -0.053271536 -0.050963677
000360 ad 33 1a bd 29 2e 8f 3d 58 ce 57 bd b9 78 98 bd
       -0.037646938 0.06991226 -0.05268702 -0.07444901
000370 b6 d7 62 3d de 84 be bd d5 ac ac bd f3 6b dd 3c
       0.0553815 -0.09302686 -0.084314026 0.027029013
000380 bb 2c 0f 3d c5 e8 d9 bc 4d cf 89 3d 06 7b ff 3c
       0.034954768 -0.026600251 0.067289926 0.031186592
000390 98 1f 03 3d b7 bb a6 3c f9 1a 1d bd ef 48 3b bd
       0.032012552 0.020353181 -0.0383558 -0.04572385
0003a0 e8 64 b8 3c c3 85 87 3c 18 0b 4e bd 62 ab 48 bd
       0.022509053 0.016543275 -0.05030355 -0.04899157
0003b0 ea 76 3a 3d ac 2d 9a bc 7f 34 27 3d b7 65 3a 3d
       0.04552356 -0.018820606 0.04082155 0.04550716
0003c0 bc 5d 53 bd dd f5 db bc d1 60 4e 3d 88 8c ff 3c
       -0.051603064 -0.026850635 0.0503853 0.03119494
0003d0 4a 50 b2 3c 44 ed 2e 3d 59 e4 38 bd df 85 aa 3c
       0.0217668 0.042706743 -0.045139644 0.020815788
0003e0 26 06 fd bc c5 47 71 bc 40 57 55 bc 1b 48 2b 3d
       -0.03088672 -0.014726584 -0.01302129 0.041816812
0003f0 de 51 0a bd 92 64 51 3d 52 6d 91 3c 7f 28 1d bc
       -0.03376948 0.051121302 0.017752323 -0.009592175

b2.bn1.weight f4 [32]
000000 0f f2 ea 3e 0c c7 bf 3e 89 22 41 3f 64 46 25 3e
       0.458878 0.37456548 0.7544332 0.16140133
000010 70 a1 5f 3f 7e 61 00 3f bf d9 05 3f 9e 11 44 3f
       0.8735571 0.5014876 0.5228538 0.7658938
000020 c2 86 8b 3e de ff ce 3e e9 2b 5e 3f 8b 65 33 3e
       0.2725125 0.40429586 0.8678575 0.17519204
000030 75 44 2c 3e ce b9 0e 3f 64 87 cf 3e 82 1d e7 3e
       0.1682299 0.55752265 0.40532982 0.451397
000040 8e d5 19 3e ae 39 82 3e cd 39 be 3d 4c 2a 58 3f
       0.15022871 0.2543463 0.092883684 0.8443954
000050 3f c4 b9 3e 36 de 90 3e d3 ee 4c 3e f2 95 70 3f
       0.36282536 0.28294533 0.20012979 0.939788
000060 29 38 1c 3f 9a 17 23 3f 80 f8 14 3f 9d e6 8b 3e
       0.61023194 0.6370789 0.5819168 0.2732438
000070 bb 0f 34 3f 4f 72 6d 3f b4 ef 07 3f bf bf 6f 3f
       0.703365 0.92752546 0.5310013 0.93651956

b2.bn1.bias f4 [32]
000000 ff 5f 96 bc f8 6d 7a bb 38 97 0e bc f8 ce c2 3c
       -0.018356321 -0.003821252 -0.008703046 0.023780331
000010 29 2e 10 bd 92 f1 5d bb f6 d6 4b bc b6 e3 52 bc
       -0.03520027 -0.003386591 -0.012441387 -0.012871673
000020 f8 74 66 bb 20 97 9f b8 9a 6f 4b bd e7 13 6a bb
       -0.0035164934 -7.60986e-05 -0.04966698 -0.003571743
000030 e7 65 03 3c 2e 9e a7 bb 13 d7 a5 3c 68 4a 02 bd
       0.008019901 -0.005115292 0.020244157 -0.03180924
000040 42 b9 29 3c aa 4c 47 bb b3 9e 22 bd c5 0d ae bc
       0.01035911 -0.0030410686 -0.03970213 -0.0212468
000050 c0 d9 33 3c a9 2e a4 bc bf c8 16 bd fb 58 a8 bb
       0.010977209 -0.02004178 -0.03681254 -0.0051375604
000060 56 c7 3f bc 9b fd c2 3c f7 a0 49 bc 08 01 8b bc
       -0.01170524 0.02380257 -0.012306443 -0.016968265
000070 1d 9a 83 bd 48 2c 49 3b 80 f6 16 3c bf 85 89 bc
       -0.06425879 0.003069656 0.009214044 -0.016787408

b2.bn1.running_mean f4 [32]
000000 83 ea 02 bf 75 4b 91 bf 66 84 2e 3e 56 11 c1 bf
       -0.51139086 -1.1351153 0.17042693 -1.5083416
000010 be b4 72 3e 7a d2 7b be 74 59 03 3d ff 15 6c 3e
       0.2370176 -0.24592009 0.03206773 0.23055266
000020 d4 45 e5 be bf 3b e2 be c5 6a e2 3d dc 6f 9c bd
       -0.44779837 -0.44186208 0.11055521 -0.07638523
000030 de 2e 9f 3e 32 d1 92 bd 54 50 53 bd af 67 8f 3e
       0.31090444 -0.07168807 -0.05159028 0.28008792
000040 c1 72 a1 3d cb 2b 0a 3e 16 0e 67 be f1 e7 06 3f
       0.07883216 0.13493268 -0.22563967 0.52697664
000050 c7 cc 64 3e 9e c3 86 bc 09 84 3d 3f 22 93 92 3c
       0.22343741 -0.0164507 0.74029595 0.017892424
000060 4d 44 b7 be d8 2f a3 be 63 29 2a 3e 88 72 a0 3e
       -0.35794297 -0.3187244 0.1661735 0.3133738
000070 86 81 b0 3e 05 56 ca be cb ec b0 3e ec de bd be
       0.3447382 -0.39518753 0.3455566 -0.37084138

b2.bn1.running_var f4 [32]
000000 9a dd 0e 3f f5 58 f3 3e 30 36 23 3e 37 49 8a 3f
       0.5580689 0.47528806 0.1593864 1.0803593
000010 ff b7 74 3e 89 76 8b 3e cb d4 41 3e 2c 1d 82 3e
       0.23898314 0.27238873 0.1892883 0.2541288
000020 55 37 33 3e 45 49 ca 3e 48 aa 80 3e 94 a5 1d 3e
       0.17501576 0.39509025 0.25129914 0.15395194
000030 33 57 4e 3e f6 89 25 3e 05 d1 0c 3e 2b 9e 59 3e
       0.20150451 0.16165909 0.1375161 0.21251743
000040 c7 77 6e 3e cf c0 9b 3e 03 70 42 3e 2b 3e b4 3e
       0.23287879 0.3042054 0.18988042 0.3520368
000050 7f 4b 0f 3e b1 e2 a0 3e b4 dd 92 3e 44 9e 8d 3e
       0.13993643 0.31422952 0.2868477 0.2765981
000060 d7 ee ae 3e 1e 73 a4 3e 94 48 47 3e 7c 44 81 3e
       0.34166595 0.32119077 0.1946128 0.25247562
000070 c3 15 48 3e 52 2f e2 3e 7d 35 36 3e d7 6c 93 3e
       0.19539551 0.44176728 0.17793842 0.28793976

b2.conv2.weight f4 [32, 32, 3, 3]
000000 28 39 2d bd fe e1 94 bd 36 24 cf bb 8c d6 60 3c
       -0.042290837 -0.07269667 -0.0063214554 0.013723027
000010 fb 86 57 bb 9f ab 1d 3d fa 7f b0 bc 20 b0 1b bd
       -0.003288685 0.03849375 -0.021545399 -0.038009763
000020 c2 07 44 3d f6 ff f7 3c 55 c6 c8 3c ec c3 8a 3a
       0.04785896 0.030273419 0.024508635 0.0010586954
000030 ac 07 c3 bc 01 5c 97 3b 03 c3 4b 3d 51 fe 19 3c
       -0.02380737 0.004619122 0.049746525 0.009399013
000040 ae 21 38 bd b5 15 4d 3d cf e9 23 bd 1b f5 1a 3d
       -0.044953994 0.05006953 -0.0400179 0.037831407
000050 0d 74 03 bd 33 fc 4e 3c cd f9 88 bd d6 ee 9d bc
       -0.032093097 0.012633371 -0.06688271 -0.019278925
000060 9d 0d 2b bd de 69 5f bd 29 78 2b bd ff 28 c6 3b
       -0.04176103 -0.054544322 -0.04186264 0.0060473676
000070 bf 17 f0 3c 12 42 c8 bc 0b f9 95 3c 61 51 b6 b9
       0.029308198 -0.024445567 0.01830723 -0.00034774377
000080 8b a7 26 bc c7 eb c0 3c 71 cd 44 3d 49 13 fa bb
       -0.010171781 0.023549927 0.048047487 -0.0076316935
000090 8c 15 ba 3a 1c c8 e0 3c 83 9d 23 bd 8f 45 c9 bc
       0.0014197095 0.02743917 -0.039945137 -0.024569301
0000a0 59 b4 5e bd 7b 35 0a 3d 36 39 1d bb 3b 1b c4 3c
       -0.05437121 0.03374241 -0.00239904 0.023938766
0000b0 3f eb cc 37 1e f3 79 3d fc ac 71 3c 39 c6 7a 3d
       2.442824e-05 0.06102287 0.014750715 0.061224196
0000c0 7f 50 63 bc 9e 04 2f 3d cf 0f db bc 5a c0 e4 3c
       -0.013874172 0.042729013 -0.026740937 0.027923752
0000d0 dd c9 5f bc 13 cb 82 3d 66 dc 60 bd 2e fc 42 bd
       -0.013658968 0.063863896 -0.05489769 -0.04760378
0000e0 93 42 05 bc 75 4b 22 bd 9a 53 58 bd 92 f2 6b bd
       -0.008133548 -0.039622743 -0.052814104 -0.05760438
0000f0 43 75 72 bb 1e 3a 06 3d d7 ae 06 bc 13 3b bb bc
       -0.0036996163 0.03277027 -0.008220396 -0.022855317
000100 51 83 3e 3d d8 56 f4 bc 99 59 4d bd f3 c1 6c bd
       0.04651195 -0.029826567 -0.050134275 -0.057802152
000110 b1 8d 35 ba 75 80 73 bd 45 b4 c7 3c 0d 38 d7 3c
       -0.0006925716 -0.059448678 0.024377951 0.026271844
000120 a5 b2 50 bd cb e4 10 bd 7a a4 25 bd 30 dd 03 3c
       -0.05095162 -0.035374444 -0.04044006 0.008048341
000130 a0 41 86 bc ff c5 24 3d b5 ca 9e 3c 51 6c 69 3d
       -0.016388714 0.040227886 0.019383768 0.056988064
000140 d2 6f ad bc 6f 04 6e 3d c7 c9 b8 3c 00 70 13 bd
       -0.021171484 0.058109697 0.022557152 -0.035995483
000150 d9 f1 73 bc 0c 13 cd 3c fa 05 2f bc f7 b0 b8 bb
       -0.014889204 0.025033496 -0.010682577 -0.00563633
000160 68 9d 29 bd 08 0d 22 bd 5b 2f d2 bc dc 05 56 3d
       -0.04140988 -0.03956321 -0.025657346 0.05225168
000170 19 ba a4 3c 3f 87 c4 3c 51 fa e7 bc dc 72 0a 3c
       0.02010827 0.023990272 -0.028317602 0.008450236
000180 8c 1c c6 bd 04 1a 02 bd 10 5a e5 3c 5d 3c 25 3d
       -0.09673414 -0.03176309 0.027997047 0.04034077
000190 27 b3 b4 3c e7 f4 64 3d 7b 51 2b 3d 23 70 2e bd
       0.022058083 0.05589762 0.041825753 -0.04258741
0001a0 5c 9a 77 3d 22 13 37 bd 8d fe fd bc db 3d c0 3c
       0.060449943 -0.04469598 -0.031005168 0.023466995
0001b0 37 9e 8a 3c 3e 18 c2 bc 72 3c 85 3c 61 fb d1 3b
       0.016921146 -0.0236932 0.016264174 0.0064081405
0001c0 38 6a d1 bd 80 ef 9c 3c b3 26 1d bd be 0e 19 3c
       -0.10225338 0.019157171 -0.038366985 0.009341894
0001d0 12 8c 0f 3a 95 27 06 bd 20 4a 8d bd d3 5e 1e bd
       0.0005475889 -0.032752592 -0.06898904 -0.03866465
0001e0 bd c8 2b 3d 88 a9 6c bc 3d 81 bf ba a4 41 df bc
       0.041939486 -0.014444716 -0.001461066 -0.02725298
0001f0 ee e3 a9 bd 1d 15 4c bd 92 b6 0b bd dc ea 95 3d
       -0.08295427 -0.049824823 -0.03410966 0.073201865
000200 2f 3b a5 bc a3 01 a3 bc 1d f8 8d bc e5 bc 81 bc
       -0.020169822 -0.019898241 -0.017330224 -0.015837142
000210 68 2c bb bc d7 bf 11 bc 1e c6 de 3c e1 63 2a bd
       -0.022848323 -0.008895836 0.027194079 -0.04159916
000220 12 f2 80 3b 16 2f 36 3c 85 c8 86 bd ff 66 22 bd
       0.003935107 0.011119625 -0.06581215 -0.039649006
000230 e8 18 c3 3b 4f 99 f2 3c f4 7c 82 bd d6 56 14 bd
       0.005953897 0.029614119 -0.06371489 -0.036215626
000240 32 2f 25 3d bb 5a be 3b 84 11 e0 bc 9a 6b 9a 3c
       0.040328212 0.0058091558 -0.027352102 0.018850137
000250 c5 4b e6 bc 73 a5 59 3d 60 ba a4 3b d8 a9 20 bd
       -0.028112302 0.0531363 0.0050271004 -0.039224476
000260 28 a9 87 3c 8e 73 ff bc 7e a1 1c bd 16 6c 8b 3c
       0.016560152 -0.03118303 -0.03823995 0.017019313
000270 6a 5d 23 bc 12 10 3d bd 8b 60 de 3c 37 b8 ee 3c
       -0.009971002 -0.046157904 0.027145645 0.029140575
000280 ba ac 1c bd 24 9a 1f 3d f7 9c 63 3c d2 95 71 bd
       -0.038250662 0.03896536 0.013892404 -0.05898077
000290 85 99 12 3a 45 7a 89 bd 4c f0 ff bb 1e b2 24 bd
       0.0005592334 -0.06712774 -0.007810628 -0.04020893
0002a0 37 55 d0 3c 73 56 72 bd c3 66 8b bc 73 7f e6 bc
       0.025431259 -0.059164476 -0.017016774 -0.028136944
0002b0 b1 f6 9b bd 2d 0b 64 bd e7 6a ab bc 62 d9 7e bb
       -0.07615412 -0.05567472 -0.020924998 -0.0038886894
0002c0 b6 5c 7d 3a ee 1b ab 3c e8 74 6a 3d ad 00 69 3d
       0.0009664999 0.020887341 0.057240397 0.05688541
0002d0 3f 26 19 bd 66 13 82 bd c0 88 18 3d 84 b0 1a bd
       -0.03738999 -0.06351356 0.03723979 -0.037765995
0002e0 6a cb 0f bc 10 50 aa bc 64 ef 49 3d c2 dd 97 3c
       -0.008776525 -0.02079013 0.049300566 0.01853836
0002f0 c3 ba 89 3d ed c0 5d bc 0b dc d8 3c cd 2a ac 3c
       0.06725075 -0.013534767 0.026472112 0.021016503
000300 3e bd f2 3c 23 c9 95 bb c7 2e 61 3c cb 1a e4 3c
       0.029631253 -0.0045710965 0.013744063 0.027844807
000310 dd be e1 3c 7c e2 3e 3d 1b c0 16 bb 7e e7 51 bd
       0.027556831 0.04660271 -0.0023002687 -0.05124616
000320 96 a1 65 bb f0 f4 c1 3c 49 c6 02 bd 33 15 e3 3c
       -0.003503894 0.023676366 -0.03192738 0.02772007
000330 7b ee f3 3b f4 1f cf 3c 4b c1 15 bd 6a 41 f0 3b
       0.0074442006 0.025283791 -0.03656129 0.0073320167
000340 bd 3a 41 bb 9b e3 cd 3c 30 0c 69 bd b3 99 a4 bc
       -0.0029484474 0.025132945 -0.05689639 -0.02009282
000350 6c e9 32 3d b5 89 30 bd 72 39 8f bd e2 90 aa bc
       0.04367964 -0.043100078 -0.06993379 -0.020821039
000360 97 b4 3a 3d a6 44 4a bd 91 35 e9 ba 24 de 4e bd
       0.04558238 -0.049381875 -0.0017792453 -0.05050482
000370 29 09 3d 3d 66 56 f0 bc 6a 28 2f bd d7 f8 c7 bb
       0.046151314 -0.029338073 -0.04276315 -0.006102662
000380 84 ec 8a bc 4b 49 0c bc a0 73 30 bd 7a 11 18 3d
       -0.016958483 -0.008562396 -0.04307902 0.037126042
000390 3c 33 37 3d 11 e8 33 bb c5 ff 31 3d 1f 26 99 bd
       0.044726595 -0.0027451555 0.04345681 -0.07477974
0003a0 3d 1f 2d bd 44 94 1b bd de 78 5c 3d 99 80 50 3c
       -0.04226612 -0.037983194 0.053826205 0.012725973
0003b0 d6 d6 f3 3c a9 4e 51 bd bb 42 5d bc 38 30 47 3d
       0.029765528 -0.051100407 -0.013504679 0.04862997
0003c0 7d 9c 82 bd 6c ae 36 3b b6 e5 30 3d c0 bc 46 bd
       -0.06377504 0.002787496 0.04318782 -0.04851985
0003d0 f4 63 04 3c 7b 8a 0f bd 72 09 66 3d 83 1d 4a bd
       0.008080471 -0.035044175 0.05616135 -0.04934455
0003e0 19 bc 68 bc 2c 14 7f 3c ed 0b 10 3d 05 8b 12 3d
       -0.014205002 0.015568774 0.035167623 0.03577711
0003f0 f9 4a e3 b9 0f 48 70 bc dd 27 ea 3c b7 af d7 3c
       -0.00043352673 -0.014665618 0.028583461 0.026328905

b2.bn2.weight f4 [32]
000000 28 75 6d 3f ab 78 6e 3f fb b5 5d 3f fe 58 e9 3e
       0.9275689 0.93152875 0.86605805 0.45575708
000010 c5 c4 fb 3d 4a 1d 6c 3e ff fa e5 3e f3 c2 bd 3d
       0.1229339 0.23058048 0.44918057 0.09265699
000020 5d a4 38 3f 2f 34 21 3e 74 84 5e 3f 03 1d a5 3e
       0.721258 0.15742563 0.8692086 0.32248697
000030 6c e0 24 3e b2 79 01 3f f7 54 3f 3f 1a 91 95 3e
       0.16101235 0.5057632 0.7473902 0.29212266
000040 35 88 2a 3f b1 a0 15 3f 98 ea 3a 3f b6 11 0e 3f
       0.66614085 0.5844832 0.7301421 0.55495775
000050 41 e0 8e 3e 08 ac b3 3d 6b 81 58 3f 40 3c 07 3f
       0.27905467 0.08773047 0.84572476 0.5282631
000060 86 89 76 3f 62 0c e2 3e 65 b4 a9 3e ad b1 54 3f
       0.96303594 0.44150072 0.33145443 0.8308361
000070 d1 cc 23 3f 74 8b fc 3e b5 5e 5c 3f 19 08 af 3e
       0.639844 0.49325144 0.8608201 0.34185866

b2.bn2.bias f4 [32]
000000 b3 92 ce 3c ce db a6 3c c9 5c 10 bd 43 c9 d0 bb
       0.025216436 0.020368483 -0.035244737 -0.0063716485
000010 23 c8 88 3c fe 0e 3b bc 6f 05 ea bb 66 c2 37 bc
       0.016696995 -0.011417149 -0.007141761 -0.011215782
000020 08 dd fb bc c2 e9 2d bd e2 c3 92 bb 15 70 83 bc
       -0.030745044 -0.042459257 -0.0044789175 -0.016044656
000030 07 b7 da bc d3 19 08 3c a9 ba e0 bb 8e f5 58 bb
       -0.026698602 0.008306938 -0.006858189 -0.0033105346
000040 e2 fc ad 3c b9 ff 09 3b 46 75 35 3c 0a ca 89 bc
       0.021238748 0.0021056964 0.011075323 -0.016819973
000050 b6 f1 d8 bc ba 38 52 bd d2 4e d5 3b ef 16 d2 bc
       -0.026482444 -0.05132363 0.0065096403 -0.025645701
000060 20 72 0f bb f5 d0 41 bc cd 74 de bc 98 d7 a3 3a
       -0.0021888092 -0.011829604 -0.027155304 0.0012500165
000070 99 33 02 3c b3 58 09 bd 80 86 2b 3c 04 32 85 bc
       0.007946872 -0.033531856 0.010469079 -0.0162592

b2.bn2.running_mean f4 [32]
000000 56 0f 86 be 2c 5b 52 be 65 19 a2 be da 90 0f 3e
       -0.26183575 -0.20542592 -0.3166 0.140201
000010 4b 5b 64 be e9 cb a7 bd 91 01 66 be c2 43 96 be
       -0.2230045 -0.0819319 -0.22461535 -0.2934857
000020 2f 2d ce bc 20 55 44 3e d1 91 ac 3e f9 b0 db bd
       -0.02516803 0.19173098 0.33705 -0.10727114
000030 51 f7 8d 3e 88 b5 e8 3d f4 07 a5 3e 54 bb 86 be
       0.2772775 0.11362749 0.3223263 -0.26314795
000040 46 6a 9d be cd b8 49 3e 33 c8 8b be 95 fe 5a 3d
       -0.30745143 0.19699402 -0.27301177 0.053465445
000050 67 60 92 bd 20 6b ab 3e b3 d8 c0 be e6 76 51 be
       -0.071472935 0.33480167 -0.37665328 -0.20455512
000060 0d 81 14 be 9c b2 1b be 50 31 79 3e 6d fd 87 be
       -0.14502354 -0.15204853 0.24335217 -0.26560536
000070 7c ba 2a 3e e7 29 5f be e2 24 39 be 05 26 30 3e
       0.166727 -0.21793328 -0.18080476 0.17202003

b2.bn2.running_var f4 [32]
000000 a7 56 1f 3e b5 bc 48 3e a6 01 af 3d 55 7d ae 3d
       0.15560399 0.19603236 0.08545236 0.08519999
000010 d4 64 3e 3d 62 46 cb 3d ad 36 e2 3d 8b 24 ae 3d
       0.046482876 0.09925534 0.11045585 0.08503064
000020 bf 7a e0 3d 9d 97 bf 3d 0a 5e 93 3e 46 b6 b8 3d
       0.10960912 0.0935509 0.28782684 0.09019141
000030 f0 2d ea 3d b0 95 27 3e 71 ab 1e 3e ba 15 3c 3e
       0.11434543 0.16365695 0.15495087 0.18367663
000040 01 1d 23 3e 2d fc 1f 3e 61 e3 06 3e 53 d6 a5 3d
       0.15929033 0.15623541 0.13172676 0.0809752
000050 b9 cd d8 3d 28 04 c9 3d 2a f2 3a 3e ce 77 a5 3d
       0.105861135 0.09815246 0.18256441 0.080794916
000060 73 7e e0 3d 02 5d ae 3d ac 19 03 3e c5 ba ab 3e
       0.10961618 0.085138336 0.12802762 0.3354093
000070 6e 93 0c 3e 80 e8 ad 3d c9 e7 90 3d 92 aa f1 3d
       0.13728115 0.084916115 0.070754595 0.11800112
